// -----// IR Dump After IREEImportPublic (iree-import-public) //----- //
module {
  func.func @matmul_static(%arg0: tensor<3x5xf32>, %arg1: tensor<5x3xf32>, %arg2: tensor<3x3xf32>) -> tensor<3x3xf32> {
    %0 = linalg.matmul ins(%arg0, %arg1 : tensor<3x5xf32>, tensor<5x3xf32>) outs(%arg2 : tensor<3x3xf32>) -> tensor<3x3xf32>
    return %0 : tensor<3x3xf32>
  }
}


// -----// IR Dump After ImportMLProgram (iree-import-ml-program) //----- //
module {
  func.func @matmul_static(%arg0: tensor<3x5xf32>, %arg1: tensor<5x3xf32>, %arg2: tensor<3x3xf32>) -> tensor<3x3xf32> {
    %0 = linalg.matmul ins(%arg0, %arg1 : tensor<3x5xf32>, tensor<5x3xf32>) outs(%arg2 : tensor<3x3xf32>) -> tensor<3x3xf32>
    return %0 : tensor<3x3xf32>
  }
}


// -----// IR Dump After SanitizeModuleNames (iree-sanitize-module-names) //----- //
module {
  func.func @matmul_static(%arg0: tensor<3x5xf32>, %arg1: tensor<5x3xf32>, %arg2: tensor<3x3xf32>) -> tensor<3x3xf32> {
    %0 = linalg.matmul ins(%arg0, %arg1 : tensor<3x5xf32>, tensor<5x3xf32>) outs(%arg2 : tensor<3x3xf32>) -> tensor<3x3xf32>
    return %0 : tensor<3x3xf32>
  }
}


// -----// IR Dump After mlir::iree_compiler::IREE::ABI::WrapEntryPointsPass (iree-abi-wrap-entry-points) //----- //
module {
  func.func @matmul_static(%arg0: !hal.buffer_view, %arg1: !hal.buffer_view, %arg2: !hal.buffer_view) -> !hal.buffer_view attributes {iree.abi.stub} {
    %0 = hal.tensor.import %arg0 : !hal.buffer_view -> tensor<3x5xf32>
    %1 = hal.tensor.import %arg1 : !hal.buffer_view -> tensor<5x3xf32>
    %2 = hal.tensor.import %arg2 : !hal.buffer_view -> tensor<3x3xf32>
    %3 = call @_matmul_static(%0, %1, %2) : (tensor<3x5xf32>, tensor<5x3xf32>, tensor<3x3xf32>) -> tensor<3x3xf32>
    %4 = hal.tensor.export %3 : tensor<3x3xf32> -> !hal.buffer_view
    return %4 : !hal.buffer_view
  }
  func.func private @_matmul_static(%arg0: tensor<3x5xf32>, %arg1: tensor<5x3xf32>, %arg2: tensor<3x3xf32>) -> tensor<3x3xf32> {
    %0 = linalg.matmul ins(%arg0, %arg1 : tensor<3x5xf32>, tensor<5x3xf32>) outs(%arg2 : tensor<3x3xf32>) -> tensor<3x3xf32>
    return %0 : tensor<3x3xf32>
  }
}


// -----// IR Dump After Canonicalizer (canonicalize) //----- //
func.func private @_matmul_static(%arg0: tensor<3x5xf32>, %arg1: tensor<5x3xf32>, %arg2: tensor<3x3xf32>) -> tensor<3x3xf32> {
  %0 = linalg.matmul ins(%arg0, %arg1 : tensor<3x5xf32>, tensor<5x3xf32>) outs(%arg2 : tensor<3x3xf32>) -> tensor<3x3xf32>
  return %0 : tensor<3x3xf32>
}

// -----// IR Dump After Canonicalizer (canonicalize) //----- //
func.func @matmul_static(%arg0: !hal.buffer_view, %arg1: !hal.buffer_view, %arg2: !hal.buffer_view) -> !hal.buffer_view attributes {iree.abi.stub} {
  %0 = hal.tensor.import %arg0 : !hal.buffer_view -> tensor<3x5xf32>
  %1 = hal.tensor.import %arg1 : !hal.buffer_view -> tensor<5x3xf32>
  %2 = hal.tensor.import %arg2 : !hal.buffer_view -> tensor<3x3xf32>
  %3 = call @_matmul_static(%0, %1, %2) : (tensor<3x5xf32>, tensor<5x3xf32>, tensor<3x3xf32>) -> tensor<3x3xf32>
  %4 = hal.tensor.export %3 : tensor<3x3xf32> -> !hal.buffer_view
  return %4 : !hal.buffer_view
}

// -----// IR Dump After Canonicalizer (canonicalize) //----- //
func.func @matmul_static(%arg0: !hal.buffer_view, %arg1: !hal.buffer_view, %arg2: !hal.buffer_view) -> !hal.buffer_view attributes {iree.abi.stub} {
  %0 = hal.tensor.import %arg0 : !hal.buffer_view -> tensor<3x5xf32>
  %1 = hal.tensor.import %arg1 : !hal.buffer_view -> tensor<5x3xf32>
  %2 = hal.tensor.import %arg2 : !hal.buffer_view -> tensor<3x3xf32>
  %3 = linalg.matmul ins(%0, %1 : tensor<3x5xf32>, tensor<5x3xf32>) outs(%2 : tensor<3x3xf32>) -> tensor<3x3xf32>
  %4 = hal.tensor.export %3 : tensor<3x3xf32> -> !hal.buffer_view
  return %4 : !hal.buffer_view
}

// -----// IR Dump After Inliner (inline) //----- //
module {
  func.func @matmul_static(%arg0: !hal.buffer_view, %arg1: !hal.buffer_view, %arg2: !hal.buffer_view) -> !hal.buffer_view attributes {iree.abi.stub} {
    %0 = hal.tensor.import %arg0 : !hal.buffer_view -> tensor<3x5xf32>
    %1 = hal.tensor.import %arg1 : !hal.buffer_view -> tensor<5x3xf32>
    %2 = hal.tensor.import %arg2 : !hal.buffer_view -> tensor<3x3xf32>
    %3 = linalg.matmul ins(%0, %1 : tensor<3x5xf32>, tensor<5x3xf32>) outs(%2 : tensor<3x3xf32>) -> tensor<3x3xf32>
    %4 = hal.tensor.export %3 : tensor<3x3xf32> -> !hal.buffer_view
    return %4 : !hal.buffer_view
  }
}


// -----// IR Dump After Canonicalizer (canonicalize) //----- //
func.func @matmul_static(%arg0: !hal.buffer_view, %arg1: !hal.buffer_view, %arg2: !hal.buffer_view) -> !hal.buffer_view attributes {iree.abi.stub} {
  %0 = hal.tensor.import %arg0 : !hal.buffer_view -> tensor<3x5xf32>
  %1 = hal.tensor.import %arg1 : !hal.buffer_view -> tensor<5x3xf32>
  %2 = hal.tensor.import %arg2 : !hal.buffer_view -> tensor<3x3xf32>
  %3 = linalg.matmul ins(%0, %1 : tensor<3x5xf32>, tensor<5x3xf32>) outs(%2 : tensor<3x3xf32>) -> tensor<3x3xf32>
  %4 = hal.tensor.export %3 : tensor<3x3xf32> -> !hal.buffer_view
  return %4 : !hal.buffer_view
}

// -----// IR Dump After CSE (cse) //----- //
func.func @matmul_static(%arg0: !hal.buffer_view, %arg1: !hal.buffer_view, %arg2: !hal.buffer_view) -> !hal.buffer_view attributes {iree.abi.stub} {
  %0 = hal.tensor.import %arg0 : !hal.buffer_view -> tensor<3x5xf32>
  %1 = hal.tensor.import %arg1 : !hal.buffer_view -> tensor<5x3xf32>
  %2 = hal.tensor.import %arg2 : !hal.buffer_view -> tensor<3x3xf32>
  %3 = linalg.matmul ins(%0, %1 : tensor<3x5xf32>, tensor<5x3xf32>) outs(%2 : tensor<3x3xf32>) -> tensor<3x3xf32>
  %4 = hal.tensor.export %3 : tensor<3x3xf32> -> !hal.buffer_view
  return %4 : !hal.buffer_view
}

// -----// IR Dump After SymbolDCE (symbol-dce) //----- //
module {
  func.func @matmul_static(%arg0: !hal.buffer_view, %arg1: !hal.buffer_view, %arg2: !hal.buffer_view) -> !hal.buffer_view attributes {iree.abi.stub} {
    %0 = hal.tensor.import %arg0 : !hal.buffer_view -> tensor<3x5xf32>
    %1 = hal.tensor.import %arg1 : !hal.buffer_view -> tensor<5x3xf32>
    %2 = hal.tensor.import %arg2 : !hal.buffer_view -> tensor<3x3xf32>
    %3 = linalg.matmul ins(%0, %1 : tensor<3x5xf32>, tensor<5x3xf32>) outs(%2 : tensor<3x3xf32>) -> tensor<3x3xf32>
    %4 = hal.tensor.export %3 : tensor<3x3xf32> -> !hal.buffer_view
    return %4 : !hal.buffer_view
  }
}


// -----// IR Dump After DemoteF64ToF32 (iree-util-demote-f64-to-f32) //----- //
module {
  func.func @matmul_static(%arg0: !hal.buffer_view, %arg1: !hal.buffer_view, %arg2: !hal.buffer_view) -> !hal.buffer_view attributes {iree.abi.stub} {
    %0 = hal.tensor.import %arg0 : !hal.buffer_view -> tensor<3x5xf32>
    %1 = hal.tensor.import %arg1 : !hal.buffer_view -> tensor<5x3xf32>
    %2 = hal.tensor.import %arg2 : !hal.buffer_view -> tensor<3x3xf32>
    %3 = linalg.matmul ins(%0, %1 : tensor<3x5xf32>, tensor<5x3xf32>) outs(%2 : tensor<3x3xf32>) -> tensor<3x3xf32>
    %4 = hal.tensor.export %3 : tensor<3x3xf32> -> !hal.buffer_view
    return %4 : !hal.buffer_view
  }
}


// -----// IR Dump After DetachElementwiseFromNamedOps (iree-flow-detach-elementwise-from-named-ops) //----- //
func.func @matmul_static(%arg0: !hal.buffer_view, %arg1: !hal.buffer_view, %arg2: !hal.buffer_view) -> !hal.buffer_view attributes {iree.abi.stub} {
  %0 = hal.tensor.import %arg0 : !hal.buffer_view -> tensor<3x5xf32>
  %1 = hal.tensor.import %arg1 : !hal.buffer_view -> tensor<5x3xf32>
  %2 = hal.tensor.import %arg2 : !hal.buffer_view -> tensor<3x3xf32>
  %3 = linalg.matmul ins(%0, %1 : tensor<3x5xf32>, tensor<5x3xf32>) outs(%2 : tensor<3x3xf32>) -> tensor<3x3xf32>
  %4 = hal.tensor.export %3 : tensor<3x3xf32> -> !hal.buffer_view
  return %4 : !hal.buffer_view
}

// -----// IR Dump After LinalgNamedOpConversion (linalg-named-op-conversion) //----- //
func.func @matmul_static(%arg0: !hal.buffer_view, %arg1: !hal.buffer_view, %arg2: !hal.buffer_view) -> !hal.buffer_view attributes {iree.abi.stub} {
  %0 = hal.tensor.import %arg0 : !hal.buffer_view -> tensor<3x5xf32>
  %1 = hal.tensor.import %arg1 : !hal.buffer_view -> tensor<5x3xf32>
  %2 = hal.tensor.import %arg2 : !hal.buffer_view -> tensor<3x3xf32>
  %3 = linalg.matmul ins(%0, %1 : tensor<3x5xf32>, tensor<5x3xf32>) outs(%2 : tensor<3x3xf32>) -> tensor<3x3xf32>
  %4 = hal.tensor.export %3 : tensor<3x3xf32> -> !hal.buffer_view
  return %4 : !hal.buffer_view
}

// -----// IR Dump After Convert1X1FilterConv2DToMatmul (iree-flow-convert-1x1-filter-conv2d-to-matmul) //----- //
func.func @matmul_static(%arg0: !hal.buffer_view, %arg1: !hal.buffer_view, %arg2: !hal.buffer_view) -> !hal.buffer_view attributes {iree.abi.stub} {
  %0 = hal.tensor.import %arg0 : !hal.buffer_view -> tensor<3x5xf32>
  %1 = hal.tensor.import %arg1 : !hal.buffer_view -> tensor<5x3xf32>
  %2 = hal.tensor.import %arg2 : !hal.buffer_view -> tensor<3x3xf32>
  %3 = linalg.matmul ins(%0, %1 : tensor<3x5xf32>, tensor<5x3xf32>) outs(%2 : tensor<3x3xf32>) -> tensor<3x3xf32>
  %4 = hal.tensor.export %3 : tensor<3x3xf32> -> !hal.buffer_view
  return %4 : !hal.buffer_view
}

// -----// IR Dump After VerifyInputLegality (iree-verify-input-legality) //----- //
module {
  func.func @matmul_static(%arg0: !hal.buffer_view, %arg1: !hal.buffer_view, %arg2: !hal.buffer_view) -> !hal.buffer_view attributes {iree.abi.stub} {
    %0 = hal.tensor.import %arg0 : !hal.buffer_view -> tensor<3x5xf32>
    %1 = hal.tensor.import %arg1 : !hal.buffer_view -> tensor<5x3xf32>
    %2 = hal.tensor.import %arg2 : !hal.buffer_view -> tensor<3x3xf32>
    %3 = linalg.matmul ins(%0, %1 : tensor<3x5xf32>, tensor<5x3xf32>) outs(%2 : tensor<3x3xf32>) -> tensor<3x3xf32>
    %4 = hal.tensor.export %3 : tensor<3x3xf32> -> !hal.buffer_view
    return %4 : !hal.buffer_view
  }
}


// -----// IR Dump After ExpandTensorShapes (iree-flow-expand-tensor-shapes) //----- //
module {
  func.func @matmul_static(%arg0: !hal.buffer_view, %arg1: !hal.buffer_view, %arg2: !hal.buffer_view) -> !hal.buffer_view attributes {iree.abi.stub} {
    %0 = hal.tensor.import %arg0 : !hal.buffer_view -> tensor<3x5xf32>
    %1 = hal.tensor.import %arg1 : !hal.buffer_view -> tensor<5x3xf32>
    %2 = hal.tensor.import %arg2 : !hal.buffer_view -> tensor<3x3xf32>
    %3 = linalg.matmul ins(%0, %1 : tensor<3x5xf32>, tensor<5x3xf32>) outs(%2 : tensor<3x3xf32>) -> tensor<3x3xf32>
    %4 = hal.tensor.export %3 : tensor<3x3xf32> -> !hal.buffer_view
    return %4 : !hal.buffer_view
  }
}


// -----// IR Dump After SimplifyGlobalAccesses (iree-util-simplify-global-accesses) //----- //
func.func @matmul_static(%arg0: !hal.buffer_view, %arg1: !hal.buffer_view, %arg2: !hal.buffer_view) -> !hal.buffer_view attributes {iree.abi.stub} {
  %0 = hal.tensor.import %arg0 : !hal.buffer_view -> tensor<3x5xf32>
  %1 = hal.tensor.import %arg1 : !hal.buffer_view -> tensor<5x3xf32>
  %2 = hal.tensor.import %arg2 : !hal.buffer_view -> tensor<3x3xf32>
  %3 = linalg.matmul ins(%0, %1 : tensor<3x5xf32>, tensor<5x3xf32>) outs(%2 : tensor<3x3xf32>) -> tensor<3x3xf32>
  %4 = hal.tensor.export %3 : tensor<3x3xf32> -> !hal.buffer_view
  return %4 : !hal.buffer_view
}

// -----// IR Dump After ApplyPatterns (iree-util-apply-patterns) //----- //
module attributes {iree.fixedpoint.iteration = 0 : index} {
  func.func @matmul_static(%arg0: !hal.buffer_view, %arg1: !hal.buffer_view, %arg2: !hal.buffer_view) -> !hal.buffer_view attributes {iree.abi.stub} {
    %0 = hal.tensor.import %arg0 : !hal.buffer_view -> tensor<3x5xf32>
    %1 = hal.tensor.import %arg1 : !hal.buffer_view -> tensor<5x3xf32>
    %2 = hal.tensor.import %arg2 : !hal.buffer_view -> tensor<3x3xf32>
    %3 = linalg.matmul ins(%0, %1 : tensor<3x5xf32>, tensor<5x3xf32>) outs(%2 : tensor<3x3xf32>) -> tensor<3x3xf32>
    %4 = hal.tensor.export %3 : tensor<3x3xf32> -> !hal.buffer_view
    return %4 : !hal.buffer_view
  }
}


// -----// IR Dump After FoldGlobals (iree-util-fold-globals) //----- //
module attributes {iree.fixedpoint.iteration = 0 : index} {
  func.func @matmul_static(%arg0: !hal.buffer_view, %arg1: !hal.buffer_view, %arg2: !hal.buffer_view) -> !hal.buffer_view attributes {iree.abi.stub} {
    %0 = hal.tensor.import %arg0 : !hal.buffer_view -> tensor<3x5xf32>
    %1 = hal.tensor.import %arg1 : !hal.buffer_view -> tensor<5x3xf32>
    %2 = hal.tensor.import %arg2 : !hal.buffer_view -> tensor<3x3xf32>
    %3 = linalg.matmul ins(%0, %1 : tensor<3x5xf32>, tensor<5x3xf32>) outs(%2 : tensor<3x3xf32>) -> tensor<3x3xf32>
    %4 = hal.tensor.export %3 : tensor<3x3xf32> -> !hal.buffer_view
    return %4 : !hal.buffer_view
  }
}


// -----// IR Dump After IPO (iree-util-ipo) //----- //
module attributes {iree.fixedpoint.iteration = 0 : index} {
  func.func @matmul_static(%arg0: !hal.buffer_view, %arg1: !hal.buffer_view, %arg2: !hal.buffer_view) -> !hal.buffer_view attributes {iree.abi.stub} {
    %0 = hal.tensor.import %arg0 : !hal.buffer_view -> tensor<3x5xf32>
    %1 = hal.tensor.import %arg1 : !hal.buffer_view -> tensor<5x3xf32>
    %2 = hal.tensor.import %arg2 : !hal.buffer_view -> tensor<3x3xf32>
    %3 = linalg.matmul ins(%0, %1 : tensor<3x5xf32>, tensor<5x3xf32>) outs(%2 : tensor<3x3xf32>) -> tensor<3x3xf32>
    %4 = hal.tensor.export %3 : tensor<3x3xf32> -> !hal.buffer_view
    return %4 : !hal.buffer_view
  }
}


// -----// IR Dump After Canonicalizer (canonicalize) //----- //
func.func @matmul_static(%arg0: !hal.buffer_view, %arg1: !hal.buffer_view, %arg2: !hal.buffer_view) -> !hal.buffer_view attributes {iree.abi.stub} {
  %0 = hal.tensor.import %arg0 : !hal.buffer_view -> tensor<3x5xf32>
  %1 = hal.tensor.import %arg1 : !hal.buffer_view -> tensor<5x3xf32>
  %2 = hal.tensor.import %arg2 : !hal.buffer_view -> tensor<3x3xf32>
  %3 = linalg.matmul ins(%0, %1 : tensor<3x5xf32>, tensor<5x3xf32>) outs(%2 : tensor<3x3xf32>) -> tensor<3x3xf32>
  %4 = hal.tensor.export %3 : tensor<3x3xf32> -> !hal.buffer_view
  return %4 : !hal.buffer_view
}

// -----// IR Dump After CSE (cse) //----- //
func.func @matmul_static(%arg0: !hal.buffer_view, %arg1: !hal.buffer_view, %arg2: !hal.buffer_view) -> !hal.buffer_view attributes {iree.abi.stub} {
  %0 = hal.tensor.import %arg0 : !hal.buffer_view -> tensor<3x5xf32>
  %1 = hal.tensor.import %arg1 : !hal.buffer_view -> tensor<5x3xf32>
  %2 = hal.tensor.import %arg2 : !hal.buffer_view -> tensor<3x3xf32>
  %3 = linalg.matmul ins(%0, %1 : tensor<3x5xf32>, tensor<5x3xf32>) outs(%2 : tensor<3x3xf32>) -> tensor<3x3xf32>
  %4 = hal.tensor.export %3 : tensor<3x3xf32> -> !hal.buffer_view
  return %4 : !hal.buffer_view
}

// -----// IR Dump After FixedPointIterator (iree-util-fixed-point-iterator) //----- //
module {
  func.func @matmul_static(%arg0: !hal.buffer_view, %arg1: !hal.buffer_view, %arg2: !hal.buffer_view) -> !hal.buffer_view attributes {iree.abi.stub} {
    %0 = hal.tensor.import %arg0 : !hal.buffer_view -> tensor<3x5xf32>
    %1 = hal.tensor.import %arg1 : !hal.buffer_view -> tensor<5x3xf32>
    %2 = hal.tensor.import %arg2 : !hal.buffer_view -> tensor<3x3xf32>
    %3 = linalg.matmul ins(%0, %1 : tensor<3x5xf32>, tensor<5x3xf32>) outs(%2 : tensor<3x3xf32>) -> tensor<3x3xf32>
    %4 = hal.tensor.export %3 : tensor<3x3xf32> -> !hal.buffer_view
    return %4 : !hal.buffer_view
  }
}


// -----// IR Dump After TensorPadToTensorInsertSlice (iree-flow-tensor-pad-to-tensor-insert-slice) //----- //
module {
  func.func @matmul_static(%arg0: !hal.buffer_view, %arg1: !hal.buffer_view, %arg2: !hal.buffer_view) -> !hal.buffer_view attributes {iree.abi.stub} {
    %0 = hal.tensor.import %arg0 : !hal.buffer_view -> tensor<3x5xf32>
    %1 = hal.tensor.import %arg1 : !hal.buffer_view -> tensor<5x3xf32>
    %2 = hal.tensor.import %arg2 : !hal.buffer_view -> tensor<3x3xf32>
    %3 = linalg.matmul ins(%0, %1 : tensor<3x5xf32>, tensor<5x3xf32>) outs(%2 : tensor<3x3xf32>) -> tensor<3x3xf32>
    %4 = hal.tensor.export %3 : tensor<3x3xf32> -> !hal.buffer_view
    return %4 : !hal.buffer_view
  }
}


// -----// IR Dump After ConvertElementwiseToLinalg (convert-elementwise-to-linalg) //----- //
func.func @matmul_static(%arg0: !hal.buffer_view, %arg1: !hal.buffer_view, %arg2: !hal.buffer_view) -> !hal.buffer_view attributes {iree.abi.stub} {
  %0 = hal.tensor.import %arg0 : !hal.buffer_view -> tensor<3x5xf32>
  %1 = hal.tensor.import %arg1 : !hal.buffer_view -> tensor<5x3xf32>
  %2 = hal.tensor.import %arg2 : !hal.buffer_view -> tensor<3x3xf32>
  %3 = linalg.matmul ins(%0, %1 : tensor<3x5xf32>, tensor<5x3xf32>) outs(%2 : tensor<3x3xf32>) -> tensor<3x3xf32>
  %4 = hal.tensor.export %3 : tensor<3x3xf32> -> !hal.buffer_view
  return %4 : !hal.buffer_view
}

// -----// IR Dump After LinalgFoldUnitExtentDims (linalg-fold-unit-extent-dims) //----- //
func.func @matmul_static(%arg0: !hal.buffer_view, %arg1: !hal.buffer_view, %arg2: !hal.buffer_view) -> !hal.buffer_view attributes {iree.abi.stub} {
  %0 = hal.tensor.import %arg0 : !hal.buffer_view -> tensor<3x5xf32>
  %1 = hal.tensor.import %arg1 : !hal.buffer_view -> tensor<5x3xf32>
  %2 = hal.tensor.import %arg2 : !hal.buffer_view -> tensor<3x3xf32>
  %3 = linalg.matmul ins(%0, %1 : tensor<3x5xf32>, tensor<5x3xf32>) outs(%2 : tensor<3x3xf32>) -> tensor<3x3xf32>
  %4 = hal.tensor.export %3 : tensor<3x3xf32> -> !hal.buffer_view
  return %4 : !hal.buffer_view
}

// -----// IR Dump After InterchangeGenericOps (iree-flow-interchange-generic-ops) //----- //
func.func @matmul_static(%arg0: !hal.buffer_view, %arg1: !hal.buffer_view, %arg2: !hal.buffer_view) -> !hal.buffer_view attributes {iree.abi.stub} {
  %0 = hal.tensor.import %arg0 : !hal.buffer_view -> tensor<3x5xf32>
  %1 = hal.tensor.import %arg1 : !hal.buffer_view -> tensor<5x3xf32>
  %2 = hal.tensor.import %arg2 : !hal.buffer_view -> tensor<3x3xf32>
  %3 = linalg.matmul ins(%0, %1 : tensor<3x5xf32>, tensor<5x3xf32>) outs(%2 : tensor<3x3xf32>) -> tensor<3x3xf32>
  %4 = hal.tensor.export %3 : tensor<3x3xf32> -> !hal.buffer_view
  return %4 : !hal.buffer_view
}

// -----// IR Dump After ResolveShapedTypeResultDims (resolve-shaped-type-result-dims) //----- //
func.func @matmul_static(%arg0: !hal.buffer_view, %arg1: !hal.buffer_view, %arg2: !hal.buffer_view) -> !hal.buffer_view attributes {iree.abi.stub} {
  %0 = hal.tensor.import %arg0 : !hal.buffer_view -> tensor<3x5xf32>
  %1 = hal.tensor.import %arg1 : !hal.buffer_view -> tensor<5x3xf32>
  %2 = hal.tensor.import %arg2 : !hal.buffer_view -> tensor<3x3xf32>
  %3 = linalg.matmul ins(%0, %1 : tensor<3x5xf32>, tensor<5x3xf32>) outs(%2 : tensor<3x3xf32>) -> tensor<3x3xf32>
  %4 = hal.tensor.export %3 : tensor<3x3xf32> -> !hal.buffer_view
  return %4 : !hal.buffer_view
}

// -----// IR Dump After Canonicalizer (canonicalize) //----- //
func.func @matmul_static(%arg0: !hal.buffer_view, %arg1: !hal.buffer_view, %arg2: !hal.buffer_view) -> !hal.buffer_view attributes {iree.abi.stub} {
  %0 = hal.tensor.import %arg0 : !hal.buffer_view -> tensor<3x5xf32>
  %1 = hal.tensor.import %arg1 : !hal.buffer_view -> tensor<5x3xf32>
  %2 = hal.tensor.import %arg2 : !hal.buffer_view -> tensor<3x3xf32>
  %3 = linalg.matmul ins(%0, %1 : tensor<3x5xf32>, tensor<5x3xf32>) outs(%2 : tensor<3x3xf32>) -> tensor<3x3xf32>
  %4 = hal.tensor.export %3 : tensor<3x3xf32> -> !hal.buffer_view
  return %4 : !hal.buffer_view
}

// -----// IR Dump After CSE (cse) //----- //
func.func @matmul_static(%arg0: !hal.buffer_view, %arg1: !hal.buffer_view, %arg2: !hal.buffer_view) -> !hal.buffer_view attributes {iree.abi.stub} {
  %0 = hal.tensor.import %arg0 : !hal.buffer_view -> tensor<3x5xf32>
  %1 = hal.tensor.import %arg1 : !hal.buffer_view -> tensor<5x3xf32>
  %2 = hal.tensor.import %arg2 : !hal.buffer_view -> tensor<3x3xf32>
  %3 = linalg.matmul ins(%0, %1 : tensor<3x5xf32>, tensor<5x3xf32>) outs(%2 : tensor<3x3xf32>) -> tensor<3x3xf32>
  %4 = hal.tensor.export %3 : tensor<3x3xf32> -> !hal.buffer_view
  return %4 : !hal.buffer_view
}

// -----// IR Dump After FusionOfTensorOps (iree-flow-fusion-of-tensor-ops) //----- //
func.func @matmul_static(%arg0: !hal.buffer_view, %arg1: !hal.buffer_view, %arg2: !hal.buffer_view) -> !hal.buffer_view attributes {iree.abi.stub} {
  %0 = hal.tensor.import %arg0 : !hal.buffer_view -> tensor<3x5xf32>
  %1 = hal.tensor.import %arg1 : !hal.buffer_view -> tensor<5x3xf32>
  %2 = hal.tensor.import %arg2 : !hal.buffer_view -> tensor<3x3xf32>
  %3 = linalg.matmul ins(%0, %1 : tensor<3x5xf32>, tensor<5x3xf32>) outs(%2 : tensor<3x3xf32>) -> tensor<3x3xf32>
  %4 = hal.tensor.export %3 : tensor<3x3xf32> -> !hal.buffer_view
  return %4 : !hal.buffer_view
}

// -----// IR Dump After LinalgDetensorize (linalg-detensorize) //----- //
func.func @matmul_static(%arg0: !hal.buffer_view, %arg1: !hal.buffer_view, %arg2: !hal.buffer_view) -> !hal.buffer_view attributes {iree.abi.stub} {
  %0 = hal.tensor.import %arg0 : !hal.buffer_view -> tensor<3x5xf32>
  %1 = hal.tensor.import %arg1 : !hal.buffer_view -> tensor<5x3xf32>
  %2 = hal.tensor.import %arg2 : !hal.buffer_view -> tensor<3x3xf32>
  %3 = linalg.matmul ins(%0, %1 : tensor<3x5xf32>, tensor<5x3xf32>) outs(%2 : tensor<3x3xf32>) -> tensor<3x3xf32>
  %4 = hal.tensor.export %3 : tensor<3x3xf32> -> !hal.buffer_view
  return %4 : !hal.buffer_view
}

// -----// IR Dump After Canonicalizer (canonicalize) //----- //
func.func @matmul_static(%arg0: !hal.buffer_view, %arg1: !hal.buffer_view, %arg2: !hal.buffer_view) -> !hal.buffer_view attributes {iree.abi.stub} {
  %0 = hal.tensor.import %arg0 : !hal.buffer_view -> tensor<3x5xf32>
  %1 = hal.tensor.import %arg1 : !hal.buffer_view -> tensor<5x3xf32>
  %2 = hal.tensor.import %arg2 : !hal.buffer_view -> tensor<3x3xf32>
  %3 = linalg.matmul ins(%0, %1 : tensor<3x5xf32>, tensor<5x3xf32>) outs(%2 : tensor<3x3xf32>) -> tensor<3x3xf32>
  %4 = hal.tensor.export %3 : tensor<3x3xf32> -> !hal.buffer_view
  return %4 : !hal.buffer_view
}

// -----// IR Dump After CSE (cse) //----- //
func.func @matmul_static(%arg0: !hal.buffer_view, %arg1: !hal.buffer_view, %arg2: !hal.buffer_view) -> !hal.buffer_view attributes {iree.abi.stub} {
  %0 = hal.tensor.import %arg0 : !hal.buffer_view -> tensor<3x5xf32>
  %1 = hal.tensor.import %arg1 : !hal.buffer_view -> tensor<5x3xf32>
  %2 = hal.tensor.import %arg2 : !hal.buffer_view -> tensor<3x3xf32>
  %3 = linalg.matmul ins(%0, %1 : tensor<3x5xf32>, tensor<5x3xf32>) outs(%2 : tensor<3x3xf32>) -> tensor<3x3xf32>
  %4 = hal.tensor.export %3 : tensor<3x3xf32> -> !hal.buffer_view
  return %4 : !hal.buffer_view
}

// -----// IR Dump After CollapseDims (iree-flow-collapse-dims) //----- //
func.func @matmul_static(%arg0: !hal.buffer_view, %arg1: !hal.buffer_view, %arg2: !hal.buffer_view) -> !hal.buffer_view attributes {iree.abi.stub} {
  %0 = hal.tensor.import %arg0 : !hal.buffer_view -> tensor<3x5xf32>
  %1 = hal.tensor.import %arg1 : !hal.buffer_view -> tensor<5x3xf32>
  %2 = hal.tensor.import %arg2 : !hal.buffer_view -> tensor<3x3xf32>
  %3 = linalg.matmul ins(%0, %1 : tensor<3x5xf32>, tensor<5x3xf32>) outs(%2 : tensor<3x3xf32>) -> tensor<3x3xf32>
  %4 = hal.tensor.export %3 : tensor<3x3xf32> -> !hal.buffer_view
  return %4 : !hal.buffer_view
}

// -----// IR Dump After SplitReduction (iree-flow-split-reduction-ops) //----- //
func.func @matmul_static(%arg0: !hal.buffer_view, %arg1: !hal.buffer_view, %arg2: !hal.buffer_view) -> !hal.buffer_view attributes {iree.abi.stub} {
  %0 = hal.tensor.import %arg0 : !hal.buffer_view -> tensor<3x5xf32>
  %1 = hal.tensor.import %arg1 : !hal.buffer_view -> tensor<5x3xf32>
  %2 = hal.tensor.import %arg2 : !hal.buffer_view -> tensor<3x3xf32>
  %3 = linalg.matmul ins(%0, %1 : tensor<3x5xf32>, tensor<5x3xf32>) outs(%2 : tensor<3x3xf32>) -> tensor<3x3xf32>
  %4 = hal.tensor.export %3 : tensor<3x3xf32> -> !hal.buffer_view
  return %4 : !hal.buffer_view
}

// -----// IR Dump After InterchangeGenericOps (iree-flow-interchange-generic-ops) //----- //
func.func @matmul_static(%arg0: !hal.buffer_view, %arg1: !hal.buffer_view, %arg2: !hal.buffer_view) -> !hal.buffer_view attributes {iree.abi.stub} {
  %0 = hal.tensor.import %arg0 : !hal.buffer_view -> tensor<3x5xf32>
  %1 = hal.tensor.import %arg1 : !hal.buffer_view -> tensor<5x3xf32>
  %2 = hal.tensor.import %arg2 : !hal.buffer_view -> tensor<3x3xf32>
  %3 = linalg.matmul ins(%0, %1 : tensor<3x5xf32>, tensor<5x3xf32>) outs(%2 : tensor<3x3xf32>) -> tensor<3x3xf32>
  %4 = hal.tensor.export %3 : tensor<3x3xf32> -> !hal.buffer_view
  return %4 : !hal.buffer_view
}

// -----// IR Dump After FormDispatchRegions (iree-flow-form-dispatch-regions) //----- //
func.func @matmul_static(%arg0: !hal.buffer_view, %arg1: !hal.buffer_view, %arg2: !hal.buffer_view) -> !hal.buffer_view attributes {iree.abi.stub} {
  %0 = hal.tensor.import %arg0 : !hal.buffer_view -> tensor<3x5xf32>
  %1 = hal.tensor.import %arg1 : !hal.buffer_view -> tensor<5x3xf32>
  %2 = hal.tensor.import %arg2 : !hal.buffer_view -> tensor<3x3xf32>
  %c1 = arith.constant 1 : index
  %c0 = arith.constant 0 : index
  %c3 = arith.constant 3 : index
  %c1_0 = arith.constant 1 : index
  %3 = affine.apply affine_map<()[s0, s1, s2] -> ((s1 - s0) ceildiv s2)>()[%c0, %c3, %c1_0]
  %c0_1 = arith.constant 0 : index
  %c3_2 = arith.constant 3 : index
  %c1_3 = arith.constant 1 : index
  %4 = affine.apply affine_map<()[s0, s1, s2] -> ((s1 - s0) ceildiv s2)>()[%c0_1, %c3_2, %c1_3]
  %c0_4 = arith.constant 0 : index
  %c1_5 = arith.constant 1 : index
  %5 = affine.apply affine_map<()[s0, s1, s2] -> ((s1 - s0) ceildiv s2)>()[%c0_4, %c1, %c1_5]
  %6 = flow.dispatch.region[%3, %4, %5] -> (tensor<3x3xf32>) {
    %8 = linalg.matmul ins(%0, %1 : tensor<3x5xf32>, tensor<5x3xf32>) outs(%2 : tensor<3x3xf32>) -> tensor<3x3xf32>
    flow.return %8 : tensor<3x3xf32>
  } count(%arg3: index, %arg4: index, %arg5: index) -> (index, index, index) {
    %x, %y, %z = flow.dispatch.workgroup_count_from_dag_root %arg3, %arg4, %arg5
    flow.return %x, %y, %z : index, index, index
  }
  %7 = hal.tensor.export %6 : tensor<3x3xf32> -> !hal.buffer_view
  return %7 : !hal.buffer_view
}

// -----// IR Dump After CollapseDimensions (iree-flow-collapse-dimensions) //----- //
func.func @matmul_static(%arg0: !hal.buffer_view, %arg1: !hal.buffer_view, %arg2: !hal.buffer_view) -> !hal.buffer_view attributes {iree.abi.stub} {
  %c3 = arith.constant 3 : index
  %c1 = arith.constant 1 : index
  %0 = hal.tensor.import %arg0 : !hal.buffer_view -> tensor<3x5xf32>
  %1 = hal.tensor.import %arg1 : !hal.buffer_view -> tensor<5x3xf32>
  %2 = hal.tensor.import %arg2 : !hal.buffer_view -> tensor<3x3xf32>
  %3 = flow.dispatch.region[%c3, %c3, %c1] -> (tensor<3x3xf32>) {
    %5 = linalg.matmul ins(%0, %1 : tensor<3x5xf32>, tensor<5x3xf32>) outs(%2 : tensor<3x3xf32>) -> tensor<3x3xf32>
    flow.return %5 : tensor<3x3xf32>
  } count(%arg3: index, %arg4: index, %arg5: index) -> (index, index, index) {
    %x, %y, %z = flow.dispatch.workgroup_count_from_dag_root %arg3, %arg4, %arg5
    flow.return %x, %y, %z : index, index, index
  }
  %4 = hal.tensor.export %3 : tensor<3x3xf32> -> !hal.buffer_view
  return %4 : !hal.buffer_view
}

// -----// IR Dump After FormDispatchWorkgroups (iree-flow-form-dispatch-workgroups) //----- //
func.func @matmul_static(%arg0: !hal.buffer_view, %arg1: !hal.buffer_view, %arg2: !hal.buffer_view) -> !hal.buffer_view attributes {iree.abi.stub} {
  %c3 = arith.constant 3 : index
  %c1 = arith.constant 1 : index
  %0 = hal.tensor.import %arg0 : !hal.buffer_view -> tensor<3x5xf32>
  %1 = hal.tensor.import %arg1 : !hal.buffer_view -> tensor<5x3xf32>
  %2 = hal.tensor.import %arg2 : !hal.buffer_view -> tensor<3x3xf32>
  %3 = flow.dispatch.workgroups[%c3, %c3, %c1](%0, %1, %2) : (tensor<3x5xf32>, tensor<5x3xf32>, tensor<3x3xf32>) -> %2 =
      (%arg3: !flow.dispatch.tensor<readonly:tensor<3x5xf32>>, %arg4: !flow.dispatch.tensor<readonly:tensor<5x3xf32>>, %arg5: !flow.dispatch.tensor<readwrite:tensor<3x3xf32>>) {
    %5 = flow.dispatch.tensor.load %arg3, offsets = [0, 0], sizes = [3, 5], strides = [1, 1] : !flow.dispatch.tensor<readonly:tensor<3x5xf32>> -> tensor<3x5xf32>
    %6 = flow.dispatch.tensor.load %arg4, offsets = [0, 0], sizes = [5, 3], strides = [1, 1] : !flow.dispatch.tensor<readonly:tensor<5x3xf32>> -> tensor<5x3xf32>
    %7 = flow.dispatch.tensor.load %arg5, offsets = [0, 0], sizes = [3, 3], strides = [1, 1] : !flow.dispatch.tensor<readwrite:tensor<3x3xf32>> -> tensor<3x3xf32>
    %8 = linalg.matmul ins(%5, %6 : tensor<3x5xf32>, tensor<5x3xf32>) outs(%7 : tensor<3x3xf32>) -> tensor<3x3xf32>
    flow.dispatch.tensor.store %8, %arg5, offsets = [0, 0], sizes = [3, 3], strides = [1, 1] : tensor<3x3xf32> -> !flow.dispatch.tensor<readwrite:tensor<3x3xf32>>
    flow.return
  } count(%arg3: index, %arg4: index, %arg5: index) -> (index, index, index) {
    %x, %y, %z = flow.dispatch.workgroup_count_from_dag_root %arg3, %arg4, %arg5
    flow.return %x, %y, %z : index, index, index
  }
  %4 = hal.tensor.export %3 : tensor<3x3xf32> -> !hal.buffer_view
  return %4 : !hal.buffer_view
}

// -----// IR Dump After CaptureDispatchDynamicDims (iree-flow-capture-dispatch-dynamic-dims) //----- //
func.func @matmul_static(%arg0: !hal.buffer_view, %arg1: !hal.buffer_view, %arg2: !hal.buffer_view) -> !hal.buffer_view attributes {iree.abi.stub} {
  %c3 = arith.constant 3 : index
  %c1 = arith.constant 1 : index
  %0 = hal.tensor.import %arg0 : !hal.buffer_view -> tensor<3x5xf32>
  %1 = hal.tensor.import %arg1 : !hal.buffer_view -> tensor<5x3xf32>
  %2 = hal.tensor.import %arg2 : !hal.buffer_view -> tensor<3x3xf32>
  %3 = flow.dispatch.workgroups[%c3, %c3, %c1](%0, %1, %2) : (tensor<3x5xf32>, tensor<5x3xf32>, tensor<3x3xf32>) -> %2 =
      (%arg3: !flow.dispatch.tensor<readonly:tensor<3x5xf32>>, %arg4: !flow.dispatch.tensor<readonly:tensor<5x3xf32>>, %arg5: !flow.dispatch.tensor<readwrite:tensor<3x3xf32>>) {
    %5 = flow.dispatch.tensor.load %arg3, offsets = [0, 0], sizes = [3, 5], strides = [1, 1] : !flow.dispatch.tensor<readonly:tensor<3x5xf32>> -> tensor<3x5xf32>
    %6 = flow.dispatch.tensor.load %arg4, offsets = [0, 0], sizes = [5, 3], strides = [1, 1] : !flow.dispatch.tensor<readonly:tensor<5x3xf32>> -> tensor<5x3xf32>
    %7 = flow.dispatch.tensor.load %arg5, offsets = [0, 0], sizes = [3, 3], strides = [1, 1] : !flow.dispatch.tensor<readwrite:tensor<3x3xf32>> -> tensor<3x3xf32>
    %8 = linalg.matmul ins(%5, %6 : tensor<3x5xf32>, tensor<5x3xf32>) outs(%7 : tensor<3x3xf32>) -> tensor<3x3xf32>
    flow.dispatch.tensor.store %8, %arg5, offsets = [0, 0], sizes = [3, 3], strides = [1, 1] : tensor<3x3xf32> -> !flow.dispatch.tensor<readwrite:tensor<3x3xf32>>
    flow.return
  } count(%arg3: index, %arg4: index, %arg5: index) -> (index, index, index) {
    %x, %y, %z = flow.dispatch.workgroup_count_from_dag_root %arg3, %arg4, %arg5
    flow.return %x, %y, %z : index, index, index
  }
  %4 = hal.tensor.export %3 : tensor<3x3xf32> -> !hal.buffer_view
  return %4 : !hal.buffer_view
}

// -----// IR Dump After Canonicalizer (canonicalize) //----- //
func.func @matmul_static(%arg0: !hal.buffer_view, %arg1: !hal.buffer_view, %arg2: !hal.buffer_view) -> !hal.buffer_view attributes {iree.abi.stub} {
  %c3 = arith.constant 3 : index
  %c1 = arith.constant 1 : index
  %0 = hal.tensor.import %arg0 : !hal.buffer_view -> tensor<3x5xf32>
  %1 = hal.tensor.import %arg1 : !hal.buffer_view -> tensor<5x3xf32>
  %2 = hal.tensor.import %arg2 : !hal.buffer_view -> tensor<3x3xf32>
  %3 = flow.dispatch.workgroups[%c3, %c3, %c1](%0, %1, %2) : (tensor<3x5xf32>, tensor<5x3xf32>, tensor<3x3xf32>) -> %2 =
      (%arg3: !flow.dispatch.tensor<readonly:tensor<3x5xf32>>, %arg4: !flow.dispatch.tensor<readonly:tensor<5x3xf32>>, %arg5: !flow.dispatch.tensor<readwrite:tensor<3x3xf32>>) {
    %5 = flow.dispatch.tensor.load %arg3, offsets = [0, 0], sizes = [3, 5], strides = [1, 1] : !flow.dispatch.tensor<readonly:tensor<3x5xf32>> -> tensor<3x5xf32>
    %6 = flow.dispatch.tensor.load %arg4, offsets = [0, 0], sizes = [5, 3], strides = [1, 1] : !flow.dispatch.tensor<readonly:tensor<5x3xf32>> -> tensor<5x3xf32>
    %7 = flow.dispatch.tensor.load %arg5, offsets = [0, 0], sizes = [3, 3], strides = [1, 1] : !flow.dispatch.tensor<readwrite:tensor<3x3xf32>> -> tensor<3x3xf32>
    %8 = linalg.matmul ins(%5, %6 : tensor<3x5xf32>, tensor<5x3xf32>) outs(%7 : tensor<3x3xf32>) -> tensor<3x3xf32>
    flow.dispatch.tensor.store %8, %arg5, offsets = [0, 0], sizes = [3, 3], strides = [1, 1] : tensor<3x3xf32> -> !flow.dispatch.tensor<readwrite:tensor<3x3xf32>>
    flow.return
  } count(%arg3: index, %arg4: index, %arg5: index) -> (index, index, index) {
    %x, %y, %z = flow.dispatch.workgroup_count_from_dag_root %arg3, %arg4, %arg5
    flow.return %x, %y, %z : index, index, index
  }
  %4 = hal.tensor.export %3 : tensor<3x3xf32> -> !hal.buffer_view
  return %4 : !hal.buffer_view
}

// -----// IR Dump After CSE (cse) //----- //
func.func @matmul_static(%arg0: !hal.buffer_view, %arg1: !hal.buffer_view, %arg2: !hal.buffer_view) -> !hal.buffer_view attributes {iree.abi.stub} {
  %c3 = arith.constant 3 : index
  %c1 = arith.constant 1 : index
  %0 = hal.tensor.import %arg0 : !hal.buffer_view -> tensor<3x5xf32>
  %1 = hal.tensor.import %arg1 : !hal.buffer_view -> tensor<5x3xf32>
  %2 = hal.tensor.import %arg2 : !hal.buffer_view -> tensor<3x3xf32>
  %3 = flow.dispatch.workgroups[%c3, %c3, %c1](%0, %1, %2) : (tensor<3x5xf32>, tensor<5x3xf32>, tensor<3x3xf32>) -> %2 =
      (%arg3: !flow.dispatch.tensor<readonly:tensor<3x5xf32>>, %arg4: !flow.dispatch.tensor<readonly:tensor<5x3xf32>>, %arg5: !flow.dispatch.tensor<readwrite:tensor<3x3xf32>>) {
    %5 = flow.dispatch.tensor.load %arg3, offsets = [0, 0], sizes = [3, 5], strides = [1, 1] : !flow.dispatch.tensor<readonly:tensor<3x5xf32>> -> tensor<3x5xf32>
    %6 = flow.dispatch.tensor.load %arg4, offsets = [0, 0], sizes = [5, 3], strides = [1, 1] : !flow.dispatch.tensor<readonly:tensor<5x3xf32>> -> tensor<5x3xf32>
    %7 = flow.dispatch.tensor.load %arg5, offsets = [0, 0], sizes = [3, 3], strides = [1, 1] : !flow.dispatch.tensor<readwrite:tensor<3x3xf32>> -> tensor<3x3xf32>
    %8 = linalg.matmul ins(%5, %6 : tensor<3x5xf32>, tensor<5x3xf32>) outs(%7 : tensor<3x3xf32>) -> tensor<3x3xf32>
    flow.dispatch.tensor.store %8, %arg5, offsets = [0, 0], sizes = [3, 3], strides = [1, 1] : tensor<3x3xf32> -> !flow.dispatch.tensor<readwrite:tensor<3x3xf32>>
    flow.return
  } count(%arg3: index, %arg4: index, %arg5: index) -> (index, index, index) {
    %x, %y, %z = flow.dispatch.workgroup_count_from_dag_root %arg3, %arg4, %arg5
    flow.return %x, %y, %z : index, index, index
  }
  %4 = hal.tensor.export %3 : tensor<3x3xf32> -> !hal.buffer_view
  return %4 : !hal.buffer_view
}

// -----// IR Dump After InitializeEmptyTensors (iree-flow-initialize-empty-tensors) //----- //
module {
  func.func @matmul_static(%arg0: !hal.buffer_view, %arg1: !hal.buffer_view, %arg2: !hal.buffer_view) -> !hal.buffer_view attributes {iree.abi.stub} {
    %c3 = arith.constant 3 : index
    %c1 = arith.constant 1 : index
    %0 = hal.tensor.import %arg0 : !hal.buffer_view -> tensor<3x5xf32>
    %1 = hal.tensor.import %arg1 : !hal.buffer_view -> tensor<5x3xf32>
    %2 = hal.tensor.import %arg2 : !hal.buffer_view -> tensor<3x3xf32>
    %3 = flow.dispatch.workgroups[%c3, %c3, %c1](%0, %1, %2) : (tensor<3x5xf32>, tensor<5x3xf32>, tensor<3x3xf32>) -> %2 =
        (%arg3: !flow.dispatch.tensor<readonly:tensor<3x5xf32>>, %arg4: !flow.dispatch.tensor<readonly:tensor<5x3xf32>>, %arg5: !flow.dispatch.tensor<readwrite:tensor<3x3xf32>>) {
      %5 = flow.dispatch.tensor.load %arg3, offsets = [0, 0], sizes = [3, 5], strides = [1, 1] : !flow.dispatch.tensor<readonly:tensor<3x5xf32>> -> tensor<3x5xf32>
      %6 = flow.dispatch.tensor.load %arg4, offsets = [0, 0], sizes = [5, 3], strides = [1, 1] : !flow.dispatch.tensor<readonly:tensor<5x3xf32>> -> tensor<5x3xf32>
      %7 = flow.dispatch.tensor.load %arg5, offsets = [0, 0], sizes = [3, 3], strides = [1, 1] : !flow.dispatch.tensor<readwrite:tensor<3x3xf32>> -> tensor<3x3xf32>
      %8 = linalg.matmul ins(%5, %6 : tensor<3x5xf32>, tensor<5x3xf32>) outs(%7 : tensor<3x3xf32>) -> tensor<3x3xf32>
      flow.dispatch.tensor.store %8, %arg5, offsets = [0, 0], sizes = [3, 3], strides = [1, 1] : tensor<3x3xf32> -> !flow.dispatch.tensor<readwrite:tensor<3x3xf32>>
      flow.return
    } count(%arg3: index, %arg4: index, %arg5: index) -> (index, index, index) {
      %x, %y, %z = flow.dispatch.workgroup_count_from_dag_root %arg3, %arg4, %arg5
      flow.return %x, %y, %z : index, index, index
    }
    %4 = hal.tensor.export %3 : tensor<3x3xf32> -> !hal.buffer_view
    return %4 : !hal.buffer_view
  }
}


// -----// IR Dump After OutlineDispatchRegions (iree-flow-outline-dispatch-regions) //----- //
module {
  flow.executable private @matmul_static_dispatch_0 {
    flow.executable.export public @matmul_static_dispatch_0_matmul_3x3x5 workgroups(%arg0: index, %arg1: index, %arg2: index) -> (index, index, index) {
      %x, %y, %z = flow.dispatch.workgroup_count_from_dag_root %arg0, %arg1, %arg2
      flow.return %x, %y, %z : index, index, index
    }
    builtin.module {
      func.func @matmul_static_dispatch_0_matmul_3x3x5(%arg0: !flow.dispatch.tensor<readonly:tensor<3x5xf32>>, %arg1: !flow.dispatch.tensor<readonly:tensor<5x3xf32>>, %arg2: !flow.dispatch.tensor<readwrite:tensor<3x3xf32>>) {
        %0 = flow.dispatch.tensor.load %arg0, offsets = [0, 0], sizes = [3, 5], strides = [1, 1] : !flow.dispatch.tensor<readonly:tensor<3x5xf32>> -> tensor<3x5xf32>
        %1 = flow.dispatch.tensor.load %arg1, offsets = [0, 0], sizes = [5, 3], strides = [1, 1] : !flow.dispatch.tensor<readonly:tensor<5x3xf32>> -> tensor<5x3xf32>
        %2 = flow.dispatch.tensor.load %arg2, offsets = [0, 0], sizes = [3, 3], strides = [1, 1] : !flow.dispatch.tensor<readwrite:tensor<3x3xf32>> -> tensor<3x3xf32>
        %3 = linalg.matmul ins(%0, %1 : tensor<3x5xf32>, tensor<5x3xf32>) outs(%2 : tensor<3x3xf32>) -> tensor<3x3xf32>
        flow.dispatch.tensor.store %3, %arg2, offsets = [0, 0], sizes = [3, 3], strides = [1, 1] : tensor<3x3xf32> -> !flow.dispatch.tensor<readwrite:tensor<3x3xf32>>
        return
      }
    }
  }
  func.func @matmul_static(%arg0: !hal.buffer_view, %arg1: !hal.buffer_view, %arg2: !hal.buffer_view) -> !hal.buffer_view attributes {iree.abi.stub} {
    %c3 = arith.constant 3 : index
    %c1 = arith.constant 1 : index
    %0 = hal.tensor.import %arg0 : !hal.buffer_view -> tensor<3x5xf32>
    %1 = hal.tensor.import %arg1 : !hal.buffer_view -> tensor<5x3xf32>
    %2 = hal.tensor.import %arg2 : !hal.buffer_view -> tensor<3x3xf32>
    %3 = flow.dispatch @matmul_static_dispatch_0::@matmul_static_dispatch_0_matmul_3x3x5[%c3, %c3, %c1](%0, %1, %2) : (tensor<3x5xf32>, tensor<5x3xf32>, tensor<3x3xf32>) -> %2
    %4 = hal.tensor.export %3 : tensor<3x3xf32> -> !hal.buffer_view
    return %4 : !hal.buffer_view
  }
}


// -----// IR Dump After StripDebugOps (iree-util-strip-debug-ops) //----- //
flow.executable private @matmul_static_dispatch_0 {
  flow.executable.export public @matmul_static_dispatch_0_matmul_3x3x5 workgroups(%arg0: index, %arg1: index, %arg2: index) -> (index, index, index) {
    %x, %y, %z = flow.dispatch.workgroup_count_from_dag_root %arg0, %arg1, %arg2
    flow.return %x, %y, %z : index, index, index
  }
  builtin.module {
    func.func @matmul_static_dispatch_0_matmul_3x3x5(%arg0: !flow.dispatch.tensor<readonly:tensor<3x5xf32>>, %arg1: !flow.dispatch.tensor<readonly:tensor<5x3xf32>>, %arg2: !flow.dispatch.tensor<readwrite:tensor<3x3xf32>>) {
      %0 = flow.dispatch.tensor.load %arg0, offsets = [0, 0], sizes = [3, 5], strides = [1, 1] : !flow.dispatch.tensor<readonly:tensor<3x5xf32>> -> tensor<3x5xf32>
      %1 = flow.dispatch.tensor.load %arg1, offsets = [0, 0], sizes = [5, 3], strides = [1, 1] : !flow.dispatch.tensor<readonly:tensor<5x3xf32>> -> tensor<5x3xf32>
      %2 = flow.dispatch.tensor.load %arg2, offsets = [0, 0], sizes = [3, 3], strides = [1, 1] : !flow.dispatch.tensor<readwrite:tensor<3x3xf32>> -> tensor<3x3xf32>
      %3 = linalg.matmul ins(%0, %1 : tensor<3x5xf32>, tensor<5x3xf32>) outs(%2 : tensor<3x3xf32>) -> tensor<3x3xf32>
      flow.dispatch.tensor.store %3, %arg2, offsets = [0, 0], sizes = [3, 3], strides = [1, 1] : tensor<3x3xf32> -> !flow.dispatch.tensor<readwrite:tensor<3x3xf32>>
      return
    }
  }
}

// -----// IR Dump After Canonicalizer (canonicalize) //----- //
func.func @matmul_static(%arg0: !hal.buffer_view, %arg1: !hal.buffer_view, %arg2: !hal.buffer_view) -> !hal.buffer_view attributes {iree.abi.stub} {
  %c3 = arith.constant 3 : index
  %c1 = arith.constant 1 : index
  %0 = hal.tensor.import %arg0 : !hal.buffer_view -> tensor<3x5xf32>
  %1 = hal.tensor.import %arg1 : !hal.buffer_view -> tensor<5x3xf32>
  %2 = hal.tensor.import %arg2 : !hal.buffer_view -> tensor<3x3xf32>
  %3 = flow.dispatch @matmul_static_dispatch_0::@matmul_static_dispatch_0_matmul_3x3x5[%c3, %c3, %c1](%0, %1, %2) : (tensor<3x5xf32>, tensor<5x3xf32>, tensor<3x3xf32>) -> %2
  %4 = hal.tensor.export %3 : tensor<3x3xf32> -> !hal.buffer_view
  return %4 : !hal.buffer_view
}

// -----// IR Dump After DeduplicateExecutables (iree-flow-deduplicate-executables) //----- //
module {
  flow.executable private @matmul_static_dispatch_0 {
    flow.executable.export public @matmul_static_dispatch_0_matmul_3x3x5 workgroups(%arg0: index, %arg1: index, %arg2: index) -> (index, index, index) {
      %x, %y, %z = flow.dispatch.workgroup_count_from_dag_root %arg0, %arg1, %arg2
      flow.return %x, %y, %z : index, index, index
    }
    builtin.module {
      func.func @matmul_static_dispatch_0_matmul_3x3x5(%arg0: !flow.dispatch.tensor<readonly:tensor<3x5xf32>>, %arg1: !flow.dispatch.tensor<readonly:tensor<5x3xf32>>, %arg2: !flow.dispatch.tensor<readwrite:tensor<3x3xf32>>) {
        %0 = flow.dispatch.tensor.load %arg0, offsets = [0, 0], sizes = [3, 5], strides = [1, 1] : !flow.dispatch.tensor<readonly:tensor<3x5xf32>> -> tensor<3x5xf32>
        %1 = flow.dispatch.tensor.load %arg1, offsets = [0, 0], sizes = [5, 3], strides = [1, 1] : !flow.dispatch.tensor<readonly:tensor<5x3xf32>> -> tensor<5x3xf32>
        %2 = flow.dispatch.tensor.load %arg2, offsets = [0, 0], sizes = [3, 3], strides = [1, 1] : !flow.dispatch.tensor<readwrite:tensor<3x3xf32>> -> tensor<3x3xf32>
        %3 = linalg.matmul ins(%0, %1 : tensor<3x5xf32>, tensor<5x3xf32>) outs(%2 : tensor<3x3xf32>) -> tensor<3x3xf32>
        flow.dispatch.tensor.store %3, %arg2, offsets = [0, 0], sizes = [3, 3], strides = [1, 1] : tensor<3x3xf32> -> !flow.dispatch.tensor<readwrite:tensor<3x3xf32>>
        return
      }
    }
  }
  func.func @matmul_static(%arg0: !hal.buffer_view, %arg1: !hal.buffer_view, %arg2: !hal.buffer_view) -> !hal.buffer_view attributes {iree.abi.stub} {
    %c3 = arith.constant 3 : index
    %c1 = arith.constant 1 : index
    %0 = hal.tensor.import %arg0 : !hal.buffer_view -> tensor<3x5xf32>
    %1 = hal.tensor.import %arg1 : !hal.buffer_view -> tensor<5x3xf32>
    %2 = hal.tensor.import %arg2 : !hal.buffer_view -> tensor<3x3xf32>
    %3 = flow.dispatch @matmul_static_dispatch_0::@matmul_static_dispatch_0_matmul_3x3x5[%c3, %c3, %c1](%0, %1, %2) : (tensor<3x5xf32>, tensor<5x3xf32>, tensor<3x3xf32>) -> %2
    %4 = hal.tensor.export %3 : tensor<3x3xf32> -> !hal.buffer_view
    return %4 : !hal.buffer_view
  }
}


// -----// IR Dump After Canonicalizer (canonicalize) //----- //
flow.executable private @matmul_static_dispatch_0 {
  flow.executable.export public @matmul_static_dispatch_0_matmul_3x3x5 workgroups(%arg0: index, %arg1: index, %arg2: index) -> (index, index, index) {
    %x, %y, %z = flow.dispatch.workgroup_count_from_dag_root %arg0, %arg1, %arg2
    flow.return %x, %y, %z : index, index, index
  }
  builtin.module {
    func.func @matmul_static_dispatch_0_matmul_3x3x5(%arg0: !flow.dispatch.tensor<readonly:tensor<3x5xf32>>, %arg1: !flow.dispatch.tensor<readonly:tensor<5x3xf32>>, %arg2: !flow.dispatch.tensor<readwrite:tensor<3x3xf32>>) {
      %0 = flow.dispatch.tensor.load %arg0, offsets = [0, 0], sizes = [3, 5], strides = [1, 1] : !flow.dispatch.tensor<readonly:tensor<3x5xf32>> -> tensor<3x5xf32>
      %1 = flow.dispatch.tensor.load %arg1, offsets = [0, 0], sizes = [5, 3], strides = [1, 1] : !flow.dispatch.tensor<readonly:tensor<5x3xf32>> -> tensor<5x3xf32>
      %2 = flow.dispatch.tensor.load %arg2, offsets = [0, 0], sizes = [3, 3], strides = [1, 1] : !flow.dispatch.tensor<readwrite:tensor<3x3xf32>> -> tensor<3x3xf32>
      %3 = linalg.matmul ins(%0, %1 : tensor<3x5xf32>, tensor<5x3xf32>) outs(%2 : tensor<3x3xf32>) -> tensor<3x3xf32>
      flow.dispatch.tensor.store %3, %arg2, offsets = [0, 0], sizes = [3, 3], strides = [1, 1] : tensor<3x3xf32> -> !flow.dispatch.tensor<readwrite:tensor<3x3xf32>>
      return
    }
  }
}

// -----// IR Dump After CSE (cse) //----- //
flow.executable private @matmul_static_dispatch_0 {
  flow.executable.export public @matmul_static_dispatch_0_matmul_3x3x5 workgroups(%arg0: index, %arg1: index, %arg2: index) -> (index, index, index) {
    %x, %y, %z = flow.dispatch.workgroup_count_from_dag_root %arg0, %arg1, %arg2
    flow.return %x, %y, %z : index, index, index
  }
  builtin.module {
    func.func @matmul_static_dispatch_0_matmul_3x3x5(%arg0: !flow.dispatch.tensor<readonly:tensor<3x5xf32>>, %arg1: !flow.dispatch.tensor<readonly:tensor<5x3xf32>>, %arg2: !flow.dispatch.tensor<readwrite:tensor<3x3xf32>>) {
      %0 = flow.dispatch.tensor.load %arg0, offsets = [0, 0], sizes = [3, 5], strides = [1, 1] : !flow.dispatch.tensor<readonly:tensor<3x5xf32>> -> tensor<3x5xf32>
      %1 = flow.dispatch.tensor.load %arg1, offsets = [0, 0], sizes = [5, 3], strides = [1, 1] : !flow.dispatch.tensor<readonly:tensor<5x3xf32>> -> tensor<5x3xf32>
      %2 = flow.dispatch.tensor.load %arg2, offsets = [0, 0], sizes = [3, 3], strides = [1, 1] : !flow.dispatch.tensor<readwrite:tensor<3x3xf32>> -> tensor<3x3xf32>
      %3 = linalg.matmul ins(%0, %1 : tensor<3x5xf32>, tensor<5x3xf32>) outs(%2 : tensor<3x3xf32>) -> tensor<3x3xf32>
      flow.dispatch.tensor.store %3, %arg2, offsets = [0, 0], sizes = [3, 3], strides = [1, 1] : tensor<3x3xf32> -> !flow.dispatch.tensor<readwrite:tensor<3x3xf32>>
      return
    }
  }
}

// -----// IR Dump After CleanupTensorShapes (iree-flow-cleanup-tensor-shapes) //----- //
func.func @matmul_static(%arg0: !hal.buffer_view, %arg1: !hal.buffer_view, %arg2: !hal.buffer_view) -> !hal.buffer_view attributes {iree.abi.stub} {
  %c3 = arith.constant 3 : index
  %c1 = arith.constant 1 : index
  %0 = hal.tensor.import %arg0 : !hal.buffer_view -> tensor<3x5xf32>
  %1 = hal.tensor.import %arg1 : !hal.buffer_view -> tensor<5x3xf32>
  %2 = hal.tensor.import %arg2 : !hal.buffer_view -> tensor<3x3xf32>
  %3 = flow.dispatch @matmul_static_dispatch_0::@matmul_static_dispatch_0_matmul_3x3x5[%c3, %c3, %c1](%0, %1, %2) : (tensor<3x5xf32>, tensor<5x3xf32>, tensor<3x3xf32>) -> %2
  %4 = hal.tensor.export %3 : tensor<3x3xf32> -> !hal.buffer_view
  return %4 : !hal.buffer_view
}

// -----// IR Dump After Canonicalizer (canonicalize) //----- //
func.func @matmul_static(%arg0: !hal.buffer_view, %arg1: !hal.buffer_view, %arg2: !hal.buffer_view) -> !hal.buffer_view attributes {iree.abi.stub} {
  %c3 = arith.constant 3 : index
  %c1 = arith.constant 1 : index
  %0 = hal.tensor.import %arg0 : !hal.buffer_view -> tensor<3x5xf32>
  %1 = hal.tensor.import %arg1 : !hal.buffer_view -> tensor<5x3xf32>
  %2 = hal.tensor.import %arg2 : !hal.buffer_view -> tensor<3x3xf32>
  %3 = flow.dispatch @matmul_static_dispatch_0::@matmul_static_dispatch_0_matmul_3x3x5[%c3, %c3, %c1](%0, %1, %2) : (tensor<3x5xf32>, tensor<5x3xf32>, tensor<3x3xf32>) -> %2
  %4 = hal.tensor.export %3 : tensor<3x3xf32> -> !hal.buffer_view
  return %4 : !hal.buffer_view
}

// -----// IR Dump After CSE (cse) //----- //
func.func @matmul_static(%arg0: !hal.buffer_view, %arg1: !hal.buffer_view, %arg2: !hal.buffer_view) -> !hal.buffer_view attributes {iree.abi.stub} {
  %c3 = arith.constant 3 : index
  %c1 = arith.constant 1 : index
  %0 = hal.tensor.import %arg0 : !hal.buffer_view -> tensor<3x5xf32>
  %1 = hal.tensor.import %arg1 : !hal.buffer_view -> tensor<5x3xf32>
  %2 = hal.tensor.import %arg2 : !hal.buffer_view -> tensor<3x3xf32>
  %3 = flow.dispatch @matmul_static_dispatch_0::@matmul_static_dispatch_0_matmul_3x3x5[%c3, %c3, %c1](%0, %1, %2) : (tensor<3x5xf32>, tensor<5x3xf32>, tensor<3x3xf32>) -> %2
  %4 = hal.tensor.export %3 : tensor<3x3xf32> -> !hal.buffer_view
  return %4 : !hal.buffer_view
}

// -----// IR Dump After SymbolDCE (symbol-dce) //----- //
module {
  flow.executable private @matmul_static_dispatch_0 {
    flow.executable.export public @matmul_static_dispatch_0_matmul_3x3x5 workgroups(%arg0: index, %arg1: index, %arg2: index) -> (index, index, index) {
      %x, %y, %z = flow.dispatch.workgroup_count_from_dag_root %arg0, %arg1, %arg2
      flow.return %x, %y, %z : index, index, index
    }
    builtin.module {
      func.func @matmul_static_dispatch_0_matmul_3x3x5(%arg0: !flow.dispatch.tensor<readonly:tensor<3x5xf32>>, %arg1: !flow.dispatch.tensor<readonly:tensor<5x3xf32>>, %arg2: !flow.dispatch.tensor<readwrite:tensor<3x3xf32>>) {
        %0 = flow.dispatch.tensor.load %arg0, offsets = [0, 0], sizes = [3, 5], strides = [1, 1] : !flow.dispatch.tensor<readonly:tensor<3x5xf32>> -> tensor<3x5xf32>
        %1 = flow.dispatch.tensor.load %arg1, offsets = [0, 0], sizes = [5, 3], strides = [1, 1] : !flow.dispatch.tensor<readonly:tensor<5x3xf32>> -> tensor<5x3xf32>
        %2 = flow.dispatch.tensor.load %arg2, offsets = [0, 0], sizes = [3, 3], strides = [1, 1] : !flow.dispatch.tensor<readwrite:tensor<3x3xf32>> -> tensor<3x3xf32>
        %3 = linalg.matmul ins(%0, %1 : tensor<3x5xf32>, tensor<5x3xf32>) outs(%2 : tensor<3x3xf32>) -> tensor<3x3xf32>
        flow.dispatch.tensor.store %3, %arg2, offsets = [0, 0], sizes = [3, 3], strides = [1, 1] : tensor<3x3xf32> -> !flow.dispatch.tensor<readwrite:tensor<3x3xf32>>
        return
      }
    }
  }
  func.func @matmul_static(%arg0: !hal.buffer_view, %arg1: !hal.buffer_view, %arg2: !hal.buffer_view) -> !hal.buffer_view attributes {iree.abi.stub} {
    %c3 = arith.constant 3 : index
    %c1 = arith.constant 1 : index
    %0 = hal.tensor.import %arg0 : !hal.buffer_view -> tensor<3x5xf32>
    %1 = hal.tensor.import %arg1 : !hal.buffer_view -> tensor<5x3xf32>
    %2 = hal.tensor.import %arg2 : !hal.buffer_view -> tensor<3x3xf32>
    %3 = flow.dispatch @matmul_static_dispatch_0::@matmul_static_dispatch_0_matmul_3x3x5[%c3, %c3, %c1](%0, %1, %2) : (tensor<3x5xf32>, tensor<5x3xf32>, tensor<3x3xf32>) -> %2
    %4 = hal.tensor.export %3 : tensor<3x3xf32> -> !hal.buffer_view
    return %4 : !hal.buffer_view
  }
}


// -----// IR Dump After VerifyInput (iree-stream-verify-input) //----- //
module {
  flow.executable private @matmul_static_dispatch_0 {
    flow.executable.export public @matmul_static_dispatch_0_matmul_3x3x5 workgroups(%arg0: index, %arg1: index, %arg2: index) -> (index, index, index) {
      %x, %y, %z = flow.dispatch.workgroup_count_from_dag_root %arg0, %arg1, %arg2
      flow.return %x, %y, %z : index, index, index
    }
    builtin.module {
      func.func @matmul_static_dispatch_0_matmul_3x3x5(%arg0: !flow.dispatch.tensor<readonly:tensor<3x5xf32>>, %arg1: !flow.dispatch.tensor<readonly:tensor<5x3xf32>>, %arg2: !flow.dispatch.tensor<readwrite:tensor<3x3xf32>>) {
        %0 = flow.dispatch.tensor.load %arg0, offsets = [0, 0], sizes = [3, 5], strides = [1, 1] : !flow.dispatch.tensor<readonly:tensor<3x5xf32>> -> tensor<3x5xf32>
        %1 = flow.dispatch.tensor.load %arg1, offsets = [0, 0], sizes = [5, 3], strides = [1, 1] : !flow.dispatch.tensor<readonly:tensor<5x3xf32>> -> tensor<5x3xf32>
        %2 = flow.dispatch.tensor.load %arg2, offsets = [0, 0], sizes = [3, 3], strides = [1, 1] : !flow.dispatch.tensor<readwrite:tensor<3x3xf32>> -> tensor<3x3xf32>
        %3 = linalg.matmul ins(%0, %1 : tensor<3x5xf32>, tensor<5x3xf32>) outs(%2 : tensor<3x3xf32>) -> tensor<3x3xf32>
        flow.dispatch.tensor.store %3, %arg2, offsets = [0, 0], sizes = [3, 3], strides = [1, 1] : tensor<3x3xf32> -> !flow.dispatch.tensor<readwrite:tensor<3x3xf32>>
        return
      }
    }
  }
  func.func @matmul_static(%arg0: !hal.buffer_view, %arg1: !hal.buffer_view, %arg2: !hal.buffer_view) -> !hal.buffer_view attributes {iree.abi.stub} {
    %c3 = arith.constant 3 : index
    %c1 = arith.constant 1 : index
    %0 = hal.tensor.import %arg0 : !hal.buffer_view -> tensor<3x5xf32>
    %1 = hal.tensor.import %arg1 : !hal.buffer_view -> tensor<5x3xf32>
    %2 = hal.tensor.import %arg2 : !hal.buffer_view -> tensor<3x3xf32>
    %3 = flow.dispatch @matmul_static_dispatch_0::@matmul_static_dispatch_0_matmul_3x3x5[%c3, %c3, %c1](%0, %1, %2) : (tensor<3x5xf32>, tensor<5x3xf32>, tensor<3x3xf32>) -> %2
    %4 = hal.tensor.export %3 : tensor<3x3xf32> -> !hal.buffer_view
    return %4 : !hal.buffer_view
  }
}


// -----// IR Dump After OutlineConstants (iree-stream-outline-constants) //----- //
module {
  flow.executable private @matmul_static_dispatch_0 {
    flow.executable.export public @matmul_static_dispatch_0_matmul_3x3x5 workgroups(%arg0: index, %arg1: index, %arg2: index) -> (index, index, index) {
      %x, %y, %z = flow.dispatch.workgroup_count_from_dag_root %arg0, %arg1, %arg2
      flow.return %x, %y, %z : index, index, index
    }
    builtin.module {
      func.func @matmul_static_dispatch_0_matmul_3x3x5(%arg0: !flow.dispatch.tensor<readonly:tensor<3x5xf32>>, %arg1: !flow.dispatch.tensor<readonly:tensor<5x3xf32>>, %arg2: !flow.dispatch.tensor<readwrite:tensor<3x3xf32>>) {
        %0 = flow.dispatch.tensor.load %arg0, offsets = [0, 0], sizes = [3, 5], strides = [1, 1] : !flow.dispatch.tensor<readonly:tensor<3x5xf32>> -> tensor<3x5xf32>
        %1 = flow.dispatch.tensor.load %arg1, offsets = [0, 0], sizes = [5, 3], strides = [1, 1] : !flow.dispatch.tensor<readonly:tensor<5x3xf32>> -> tensor<5x3xf32>
        %2 = flow.dispatch.tensor.load %arg2, offsets = [0, 0], sizes = [3, 3], strides = [1, 1] : !flow.dispatch.tensor<readwrite:tensor<3x3xf32>> -> tensor<3x3xf32>
        %3 = linalg.matmul ins(%0, %1 : tensor<3x5xf32>, tensor<5x3xf32>) outs(%2 : tensor<3x3xf32>) -> tensor<3x3xf32>
        flow.dispatch.tensor.store %3, %arg2, offsets = [0, 0], sizes = [3, 3], strides = [1, 1] : tensor<3x3xf32> -> !flow.dispatch.tensor<readwrite:tensor<3x3xf32>>
        return
      }
    }
  }
  func.func @matmul_static(%arg0: !hal.buffer_view, %arg1: !hal.buffer_view, %arg2: !hal.buffer_view) -> !hal.buffer_view attributes {iree.abi.stub} {
    %c3 = arith.constant 3 : index
    %c1 = arith.constant 1 : index
    %0 = hal.tensor.import %arg0 : !hal.buffer_view -> tensor<3x5xf32>
    %1 = hal.tensor.import %arg1 : !hal.buffer_view -> tensor<5x3xf32>
    %2 = hal.tensor.import %arg2 : !hal.buffer_view -> tensor<3x3xf32>
    %3 = flow.dispatch @matmul_static_dispatch_0::@matmul_static_dispatch_0_matmul_3x3x5[%c3, %c3, %c1](%0, %1, %2) : (tensor<3x5xf32>, tensor<5x3xf32>, tensor<3x3xf32>) -> %2
    %4 = hal.tensor.export %3 : tensor<3x3xf32> -> !hal.buffer_view
    return %4 : !hal.buffer_view
  }
}


// -----// IR Dump After Canonicalizer (canonicalize) //----- //
func.func @matmul_static(%arg0: !hal.buffer_view, %arg1: !hal.buffer_view, %arg2: !hal.buffer_view) -> !hal.buffer_view attributes {iree.abi.stub} {
  %c3 = arith.constant 3 : index
  %c1 = arith.constant 1 : index
  %0 = hal.tensor.import %arg0 : !hal.buffer_view -> tensor<3x5xf32>
  %1 = hal.tensor.import %arg1 : !hal.buffer_view -> tensor<5x3xf32>
  %2 = hal.tensor.import %arg2 : !hal.buffer_view -> tensor<3x3xf32>
  %3 = flow.dispatch @matmul_static_dispatch_0::@matmul_static_dispatch_0_matmul_3x3x5[%c3, %c3, %c1](%0, %1, %2) : (tensor<3x5xf32>, tensor<5x3xf32>, tensor<3x3xf32>) -> %2
  %4 = hal.tensor.export %3 : tensor<3x3xf32> -> !hal.buffer_view
  return %4 : !hal.buffer_view
}

// -----// IR Dump After CSE (cse) //----- //
func.func @matmul_static(%arg0: !hal.buffer_view, %arg1: !hal.buffer_view, %arg2: !hal.buffer_view) -> !hal.buffer_view attributes {iree.abi.stub} {
  %c3 = arith.constant 3 : index
  %c1 = arith.constant 1 : index
  %0 = hal.tensor.import %arg0 : !hal.buffer_view -> tensor<3x5xf32>
  %1 = hal.tensor.import %arg1 : !hal.buffer_view -> tensor<5x3xf32>
  %2 = hal.tensor.import %arg2 : !hal.buffer_view -> tensor<3x3xf32>
  %3 = flow.dispatch @matmul_static_dispatch_0::@matmul_static_dispatch_0_matmul_3x3x5[%c3, %c3, %c1](%0, %1, %2) : (tensor<3x5xf32>, tensor<5x3xf32>, tensor<3x3xf32>) -> %2
  %4 = hal.tensor.export %3 : tensor<3x3xf32> -> !hal.buffer_view
  return %4 : !hal.buffer_view
}

// -----// IR Dump After SimplifyGlobalAccesses (iree-util-simplify-global-accesses) //----- //
func.func @matmul_static(%arg0: !hal.buffer_view, %arg1: !hal.buffer_view, %arg2: !hal.buffer_view) -> !hal.buffer_view attributes {iree.abi.stub} {
  %c3 = arith.constant 3 : index
  %c1 = arith.constant 1 : index
  %0 = hal.tensor.import %arg0 : !hal.buffer_view -> tensor<3x5xf32>
  %1 = hal.tensor.import %arg1 : !hal.buffer_view -> tensor<5x3xf32>
  %2 = hal.tensor.import %arg2 : !hal.buffer_view -> tensor<3x3xf32>
  %3 = flow.dispatch @matmul_static_dispatch_0::@matmul_static_dispatch_0_matmul_3x3x5[%c3, %c3, %c1](%0, %1, %2) : (tensor<3x5xf32>, tensor<5x3xf32>, tensor<3x3xf32>) -> %2
  %4 = hal.tensor.export %3 : tensor<3x3xf32> -> !hal.buffer_view
  return %4 : !hal.buffer_view
}

// -----// IR Dump After ApplyPatterns (iree-util-apply-patterns) //----- //
module {
  flow.executable private @matmul_static_dispatch_0 {
    flow.executable.export public @matmul_static_dispatch_0_matmul_3x3x5 workgroups(%arg0: index, %arg1: index, %arg2: index) -> (index, index, index) {
      %x, %y, %z = flow.dispatch.workgroup_count_from_dag_root %arg0, %arg1, %arg2
      flow.return %x, %y, %z : index, index, index
    }
    builtin.module {
      func.func @matmul_static_dispatch_0_matmul_3x3x5(%arg0: !flow.dispatch.tensor<readonly:tensor<3x5xf32>>, %arg1: !flow.dispatch.tensor<readonly:tensor<5x3xf32>>, %arg2: !flow.dispatch.tensor<readwrite:tensor<3x3xf32>>) {
        %0 = flow.dispatch.tensor.load %arg0, offsets = [0, 0], sizes = [3, 5], strides = [1, 1] : !flow.dispatch.tensor<readonly:tensor<3x5xf32>> -> tensor<3x5xf32>
        %1 = flow.dispatch.tensor.load %arg1, offsets = [0, 0], sizes = [5, 3], strides = [1, 1] : !flow.dispatch.tensor<readonly:tensor<5x3xf32>> -> tensor<5x3xf32>
        %2 = flow.dispatch.tensor.load %arg2, offsets = [0, 0], sizes = [3, 3], strides = [1, 1] : !flow.dispatch.tensor<readwrite:tensor<3x3xf32>> -> tensor<3x3xf32>
        %3 = linalg.matmul ins(%0, %1 : tensor<3x5xf32>, tensor<5x3xf32>) outs(%2 : tensor<3x3xf32>) -> tensor<3x3xf32>
        flow.dispatch.tensor.store %3, %arg2, offsets = [0, 0], sizes = [3, 3], strides = [1, 1] : tensor<3x3xf32> -> !flow.dispatch.tensor<readwrite:tensor<3x3xf32>>
        return
      }
    }
  }
  func.func @matmul_static(%arg0: !hal.buffer_view, %arg1: !hal.buffer_view, %arg2: !hal.buffer_view) -> !hal.buffer_view attributes {iree.abi.stub} {
    %c3 = arith.constant 3 : index
    %c1 = arith.constant 1 : index
    %0 = hal.tensor.import %arg0 : !hal.buffer_view -> tensor<3x5xf32>
    %1 = hal.tensor.import %arg1 : !hal.buffer_view -> tensor<5x3xf32>
    %2 = hal.tensor.import %arg2 : !hal.buffer_view -> tensor<3x3xf32>
    %3 = flow.dispatch @matmul_static_dispatch_0::@matmul_static_dispatch_0_matmul_3x3x5[%c3, %c3, %c1](%0, %1, %2) : (tensor<3x5xf32>, tensor<5x3xf32>, tensor<3x3xf32>) -> %2
    %4 = hal.tensor.export %3 : tensor<3x3xf32> -> !hal.buffer_view
    return %4 : !hal.buffer_view
  }
}


// -----// IR Dump After FoldGlobals (iree-util-fold-globals) //----- //
module {
  flow.executable private @matmul_static_dispatch_0 {
    flow.executable.export public @matmul_static_dispatch_0_matmul_3x3x5 workgroups(%arg0: index, %arg1: index, %arg2: index) -> (index, index, index) {
      %x, %y, %z = flow.dispatch.workgroup_count_from_dag_root %arg0, %arg1, %arg2
      flow.return %x, %y, %z : index, index, index
    }
    builtin.module {
      func.func @matmul_static_dispatch_0_matmul_3x3x5(%arg0: !flow.dispatch.tensor<readonly:tensor<3x5xf32>>, %arg1: !flow.dispatch.tensor<readonly:tensor<5x3xf32>>, %arg2: !flow.dispatch.tensor<readwrite:tensor<3x3xf32>>) {
        %0 = flow.dispatch.tensor.load %arg0, offsets = [0, 0], sizes = [3, 5], strides = [1, 1] : !flow.dispatch.tensor<readonly:tensor<3x5xf32>> -> tensor<3x5xf32>
        %1 = flow.dispatch.tensor.load %arg1, offsets = [0, 0], sizes = [5, 3], strides = [1, 1] : !flow.dispatch.tensor<readonly:tensor<5x3xf32>> -> tensor<5x3xf32>
        %2 = flow.dispatch.tensor.load %arg2, offsets = [0, 0], sizes = [3, 3], strides = [1, 1] : !flow.dispatch.tensor<readwrite:tensor<3x3xf32>> -> tensor<3x3xf32>
        %3 = linalg.matmul ins(%0, %1 : tensor<3x5xf32>, tensor<5x3xf32>) outs(%2 : tensor<3x3xf32>) -> tensor<3x3xf32>
        flow.dispatch.tensor.store %3, %arg2, offsets = [0, 0], sizes = [3, 3], strides = [1, 1] : tensor<3x3xf32> -> !flow.dispatch.tensor<readwrite:tensor<3x3xf32>>
        return
      }
    }
  }
  func.func @matmul_static(%arg0: !hal.buffer_view, %arg1: !hal.buffer_view, %arg2: !hal.buffer_view) -> !hal.buffer_view attributes {iree.abi.stub} {
    %c3 = arith.constant 3 : index
    %c1 = arith.constant 1 : index
    %0 = hal.tensor.import %arg0 : !hal.buffer_view -> tensor<3x5xf32>
    %1 = hal.tensor.import %arg1 : !hal.buffer_view -> tensor<5x3xf32>
    %2 = hal.tensor.import %arg2 : !hal.buffer_view -> tensor<3x3xf32>
    %3 = flow.dispatch @matmul_static_dispatch_0::@matmul_static_dispatch_0_matmul_3x3x5[%c3, %c3, %c1](%0, %1, %2) : (tensor<3x5xf32>, tensor<5x3xf32>, tensor<3x3xf32>) -> %2
    %4 = hal.tensor.export %3 : tensor<3x3xf32> -> !hal.buffer_view
    return %4 : !hal.buffer_view
  }
}


// -----// IR Dump After FuseGlobals (iree-util-fuse-globals) //----- //
module {
  flow.executable private @matmul_static_dispatch_0 {
    flow.executable.export public @matmul_static_dispatch_0_matmul_3x3x5 workgroups(%arg0: index, %arg1: index, %arg2: index) -> (index, index, index) {
      %x, %y, %z = flow.dispatch.workgroup_count_from_dag_root %arg0, %arg1, %arg2
      flow.return %x, %y, %z : index, index, index
    }
    builtin.module {
      func.func @matmul_static_dispatch_0_matmul_3x3x5(%arg0: !flow.dispatch.tensor<readonly:tensor<3x5xf32>>, %arg1: !flow.dispatch.tensor<readonly:tensor<5x3xf32>>, %arg2: !flow.dispatch.tensor<readwrite:tensor<3x3xf32>>) {
        %0 = flow.dispatch.tensor.load %arg0, offsets = [0, 0], sizes = [3, 5], strides = [1, 1] : !flow.dispatch.tensor<readonly:tensor<3x5xf32>> -> tensor<3x5xf32>
        %1 = flow.dispatch.tensor.load %arg1, offsets = [0, 0], sizes = [5, 3], strides = [1, 1] : !flow.dispatch.tensor<readonly:tensor<5x3xf32>> -> tensor<5x3xf32>
        %2 = flow.dispatch.tensor.load %arg2, offsets = [0, 0], sizes = [3, 3], strides = [1, 1] : !flow.dispatch.tensor<readwrite:tensor<3x3xf32>> -> tensor<3x3xf32>
        %3 = linalg.matmul ins(%0, %1 : tensor<3x5xf32>, tensor<5x3xf32>) outs(%2 : tensor<3x3xf32>) -> tensor<3x3xf32>
        flow.dispatch.tensor.store %3, %arg2, offsets = [0, 0], sizes = [3, 3], strides = [1, 1] : tensor<3x3xf32> -> !flow.dispatch.tensor<readwrite:tensor<3x3xf32>>
        return
      }
    }
  }
  func.func @matmul_static(%arg0: !hal.buffer_view, %arg1: !hal.buffer_view, %arg2: !hal.buffer_view) -> !hal.buffer_view attributes {iree.abi.stub} {
    %c3 = arith.constant 3 : index
    %c1 = arith.constant 1 : index
    %0 = hal.tensor.import %arg0 : !hal.buffer_view -> tensor<3x5xf32>
    %1 = hal.tensor.import %arg1 : !hal.buffer_view -> tensor<5x3xf32>
    %2 = hal.tensor.import %arg2 : !hal.buffer_view -> tensor<3x3xf32>
    %3 = flow.dispatch @matmul_static_dispatch_0::@matmul_static_dispatch_0_matmul_3x3x5[%c3, %c3, %c1](%0, %1, %2) : (tensor<3x5xf32>, tensor<5x3xf32>, tensor<3x3xf32>) -> %2
    %4 = hal.tensor.export %3 : tensor<3x3xf32> -> !hal.buffer_view
    return %4 : !hal.buffer_view
  }
}


// -----// IR Dump After IPO (iree-util-ipo) //----- //
module {
  flow.executable private @matmul_static_dispatch_0 {
    flow.executable.export public @matmul_static_dispatch_0_matmul_3x3x5 workgroups(%arg0: index, %arg1: index, %arg2: index) -> (index, index, index) {
      %x, %y, %z = flow.dispatch.workgroup_count_from_dag_root %arg0, %arg1, %arg2
      flow.return %x, %y, %z : index, index, index
    }
    builtin.module {
      func.func @matmul_static_dispatch_0_matmul_3x3x5(%arg0: !flow.dispatch.tensor<readonly:tensor<3x5xf32>>, %arg1: !flow.dispatch.tensor<readonly:tensor<5x3xf32>>, %arg2: !flow.dispatch.tensor<readwrite:tensor<3x3xf32>>) {
        %0 = flow.dispatch.tensor.load %arg0, offsets = [0, 0], sizes = [3, 5], strides = [1, 1] : !flow.dispatch.tensor<readonly:tensor<3x5xf32>> -> tensor<3x5xf32>
        %1 = flow.dispatch.tensor.load %arg1, offsets = [0, 0], sizes = [5, 3], strides = [1, 1] : !flow.dispatch.tensor<readonly:tensor<5x3xf32>> -> tensor<5x3xf32>
        %2 = flow.dispatch.tensor.load %arg2, offsets = [0, 0], sizes = [3, 3], strides = [1, 1] : !flow.dispatch.tensor<readwrite:tensor<3x3xf32>> -> tensor<3x3xf32>
        %3 = linalg.matmul ins(%0, %1 : tensor<3x5xf32>, tensor<5x3xf32>) outs(%2 : tensor<3x3xf32>) -> tensor<3x3xf32>
        flow.dispatch.tensor.store %3, %arg2, offsets = [0, 0], sizes = [3, 3], strides = [1, 1] : tensor<3x3xf32> -> !flow.dispatch.tensor<readwrite:tensor<3x3xf32>>
        return
      }
    }
  }
  func.func @matmul_static(%arg0: !hal.buffer_view, %arg1: !hal.buffer_view, %arg2: !hal.buffer_view) -> !hal.buffer_view attributes {iree.abi.stub} {
    %c3 = arith.constant 3 : index
    %c1 = arith.constant 1 : index
    %0 = hal.tensor.import %arg0 : !hal.buffer_view -> tensor<3x5xf32>
    %1 = hal.tensor.import %arg1 : !hal.buffer_view -> tensor<5x3xf32>
    %2 = hal.tensor.import %arg2 : !hal.buffer_view -> tensor<3x3xf32>
    %3 = flow.dispatch @matmul_static_dispatch_0::@matmul_static_dispatch_0_matmul_3x3x5[%c3, %c3, %c1](%0, %1, %2) : (tensor<3x5xf32>, tensor<5x3xf32>, tensor<3x3xf32>) -> %2
    %4 = hal.tensor.export %3 : tensor<3x3xf32> -> !hal.buffer_view
    return %4 : !hal.buffer_view
  }
}


// -----// IR Dump After ConvertToStream (iree-stream-conversion) //----- //
module {
  stream.executable private @matmul_static_dispatch_0 {
    stream.executable.export public @matmul_static_dispatch_0_matmul_3x3x5 workgroups(%arg0: index, %arg1: index, %arg2: index) -> (index, index, index) {
      %x, %y, %z = flow.dispatch.workgroup_count_from_dag_root %arg0, %arg1, %arg2
      stream.return %x, %y, %z : index, index, index
    }
    builtin.module {
      func.func @matmul_static_dispatch_0_matmul_3x3x5(%arg0: !stream.binding, %arg1: !stream.binding, %arg2: !stream.binding) {
        %c0 = arith.constant 0 : index
        %0 = stream.binding.subspan %arg0[%c0] : !stream.binding -> !flow.dispatch.tensor<readonly:tensor<3x5xf32>>
        %1 = stream.binding.subspan %arg1[%c0] : !stream.binding -> !flow.dispatch.tensor<readonly:tensor<5x3xf32>>
        %2 = stream.binding.subspan %arg2[%c0] : !stream.binding -> !flow.dispatch.tensor<readwrite:tensor<3x3xf32>>
        %3 = flow.dispatch.tensor.load %0, offsets = [0, 0], sizes = [3, 5], strides = [1, 1] : !flow.dispatch.tensor<readonly:tensor<3x5xf32>> -> tensor<3x5xf32>
        %4 = flow.dispatch.tensor.load %1, offsets = [0, 0], sizes = [5, 3], strides = [1, 1] : !flow.dispatch.tensor<readonly:tensor<5x3xf32>> -> tensor<5x3xf32>
        %5 = flow.dispatch.tensor.load %2, offsets = [0, 0], sizes = [3, 3], strides = [1, 1] : !flow.dispatch.tensor<readwrite:tensor<3x3xf32>> -> tensor<3x3xf32>
        %6 = linalg.matmul ins(%3, %4 : tensor<3x5xf32>, tensor<5x3xf32>) outs(%5 : tensor<3x3xf32>) -> tensor<3x3xf32>
        flow.dispatch.tensor.store %6, %2, offsets = [0, 0], sizes = [3, 3], strides = [1, 1] : tensor<3x3xf32> -> !flow.dispatch.tensor<readwrite:tensor<3x3xf32>>
        return
      }
    }
  }
  func.func @matmul_static(%arg0: !hal.buffer_view, %arg1: !hal.buffer_view, %arg2: !hal.buffer_view) -> !hal.buffer_view attributes {iree.abi.stub} {
    %c3 = arith.constant 3 : index
    %c1 = arith.constant 1 : index
    %c553648160_i32 = arith.constant 553648160 : i32
    %c1_i32 = arith.constant 1 : i32
    %c3_0 = arith.constant 3 : index
    %c5 = arith.constant 5 : index
    hal.buffer_view.assert<%arg0 : !hal.buffer_view> message("tensor") shape([%c3_0, %c5]) type(%c553648160_i32) encoding(%c1_i32)
    %0 = stream.tensor.sizeof tensor<3x5xf32> : index
    %1 = stream.tensor.import %arg0 : !hal.buffer_view -> tensor<3x5xf32> in !stream.resource<external>{%0}
    %2 = stream.async.transfer %1 : !stream.resource<external>{%0} -> !stream.resource<*>{%0}
    %c553648160_i32_1 = arith.constant 553648160 : i32
    %c1_i32_2 = arith.constant 1 : i32
    %c5_3 = arith.constant 5 : index
    %c3_4 = arith.constant 3 : index
    hal.buffer_view.assert<%arg1 : !hal.buffer_view> message("tensor") shape([%c5_3, %c3_4]) type(%c553648160_i32_1) encoding(%c1_i32_2)
    %3 = stream.tensor.sizeof tensor<5x3xf32> : index
    %4 = stream.tensor.import %arg1 : !hal.buffer_view -> tensor<5x3xf32> in !stream.resource<external>{%3}
    %5 = stream.async.transfer %4 : !stream.resource<external>{%3} -> !stream.resource<*>{%3}
    %c553648160_i32_5 = arith.constant 553648160 : i32
    %c1_i32_6 = arith.constant 1 : i32
    %c3_7 = arith.constant 3 : index
    %c3_8 = arith.constant 3 : index
    hal.buffer_view.assert<%arg2 : !hal.buffer_view> message("tensor") shape([%c3_7, %c3_8]) type(%c553648160_i32_5) encoding(%c1_i32_6)
    %6 = stream.tensor.sizeof tensor<3x3xf32> : index
    %7 = stream.tensor.import %arg2 : !hal.buffer_view -> tensor<3x3xf32> in !stream.resource<external>{%6}
    %8 = stream.async.transfer %7 : !stream.resource<external>{%6} -> !stream.resource<*>{%6}
    %c0 = arith.constant 0 : index
    %9 = stream.async.dispatch @matmul_static_dispatch_0::@matmul_static_dispatch_0_matmul_3x3x5[%c3, %c3, %c1](%2[%c0 to %0 for %0], %5[%c0 to %3 for %3], %8[%c0 to %6 for %6]) : (!stream.resource<*>{%0}, !stream.resource<*>{%3}, !stream.resource<*>{%6}) -> %8{%6}
    %10 = stream.async.transfer %9 : !stream.resource<*>{%6} -> !stream.resource<external>{%6}
    %11 = stream.tensor.export %10 : tensor<3x3xf32> in !stream.resource<external>{%6} -> !hal.buffer_view
    return %11 : !hal.buffer_view
  }
}


// -----// IR Dump After VerifyLoweringToTensors (iree-stream-verify-lowering-to-tensors) //----- //
module {
  stream.executable private @matmul_static_dispatch_0 {
    stream.executable.export public @matmul_static_dispatch_0_matmul_3x3x5 workgroups(%arg0: index, %arg1: index, %arg2: index) -> (index, index, index) {
      %x, %y, %z = flow.dispatch.workgroup_count_from_dag_root %arg0, %arg1, %arg2
      stream.return %x, %y, %z : index, index, index
    }
    builtin.module {
      func.func @matmul_static_dispatch_0_matmul_3x3x5(%arg0: !stream.binding, %arg1: !stream.binding, %arg2: !stream.binding) {
        %c0 = arith.constant 0 : index
        %0 = stream.binding.subspan %arg0[%c0] : !stream.binding -> !flow.dispatch.tensor<readonly:tensor<3x5xf32>>
        %1 = stream.binding.subspan %arg1[%c0] : !stream.binding -> !flow.dispatch.tensor<readonly:tensor<5x3xf32>>
        %2 = stream.binding.subspan %arg2[%c0] : !stream.binding -> !flow.dispatch.tensor<readwrite:tensor<3x3xf32>>
        %3 = flow.dispatch.tensor.load %0, offsets = [0, 0], sizes = [3, 5], strides = [1, 1] : !flow.dispatch.tensor<readonly:tensor<3x5xf32>> -> tensor<3x5xf32>
        %4 = flow.dispatch.tensor.load %1, offsets = [0, 0], sizes = [5, 3], strides = [1, 1] : !flow.dispatch.tensor<readonly:tensor<5x3xf32>> -> tensor<5x3xf32>
        %5 = flow.dispatch.tensor.load %2, offsets = [0, 0], sizes = [3, 3], strides = [1, 1] : !flow.dispatch.tensor<readwrite:tensor<3x3xf32>> -> tensor<3x3xf32>
        %6 = linalg.matmul ins(%3, %4 : tensor<3x5xf32>, tensor<5x3xf32>) outs(%5 : tensor<3x3xf32>) -> tensor<3x3xf32>
        flow.dispatch.tensor.store %6, %2, offsets = [0, 0], sizes = [3, 3], strides = [1, 1] : tensor<3x3xf32> -> !flow.dispatch.tensor<readwrite:tensor<3x3xf32>>
        return
      }
    }
  }
  func.func @matmul_static(%arg0: !hal.buffer_view, %arg1: !hal.buffer_view, %arg2: !hal.buffer_view) -> !hal.buffer_view attributes {iree.abi.stub} {
    %c3 = arith.constant 3 : index
    %c1 = arith.constant 1 : index
    %c553648160_i32 = arith.constant 553648160 : i32
    %c1_i32 = arith.constant 1 : i32
    %c3_0 = arith.constant 3 : index
    %c5 = arith.constant 5 : index
    hal.buffer_view.assert<%arg0 : !hal.buffer_view> message("tensor") shape([%c3_0, %c5]) type(%c553648160_i32) encoding(%c1_i32)
    %0 = stream.tensor.sizeof tensor<3x5xf32> : index
    %1 = stream.tensor.import %arg0 : !hal.buffer_view -> tensor<3x5xf32> in !stream.resource<external>{%0}
    %2 = stream.async.transfer %1 : !stream.resource<external>{%0} -> !stream.resource<*>{%0}
    %c553648160_i32_1 = arith.constant 553648160 : i32
    %c1_i32_2 = arith.constant 1 : i32
    %c5_3 = arith.constant 5 : index
    %c3_4 = arith.constant 3 : index
    hal.buffer_view.assert<%arg1 : !hal.buffer_view> message("tensor") shape([%c5_3, %c3_4]) type(%c553648160_i32_1) encoding(%c1_i32_2)
    %3 = stream.tensor.sizeof tensor<5x3xf32> : index
    %4 = stream.tensor.import %arg1 : !hal.buffer_view -> tensor<5x3xf32> in !stream.resource<external>{%3}
    %5 = stream.async.transfer %4 : !stream.resource<external>{%3} -> !stream.resource<*>{%3}
    %c553648160_i32_5 = arith.constant 553648160 : i32
    %c1_i32_6 = arith.constant 1 : i32
    %c3_7 = arith.constant 3 : index
    %c3_8 = arith.constant 3 : index
    hal.buffer_view.assert<%arg2 : !hal.buffer_view> message("tensor") shape([%c3_7, %c3_8]) type(%c553648160_i32_5) encoding(%c1_i32_6)
    %6 = stream.tensor.sizeof tensor<3x3xf32> : index
    %7 = stream.tensor.import %arg2 : !hal.buffer_view -> tensor<3x3xf32> in !stream.resource<external>{%6}
    %8 = stream.async.transfer %7 : !stream.resource<external>{%6} -> !stream.resource<*>{%6}
    %c0 = arith.constant 0 : index
    %9 = stream.async.dispatch @matmul_static_dispatch_0::@matmul_static_dispatch_0_matmul_3x3x5[%c3, %c3, %c1](%2[%c0 to %0 for %0], %5[%c0 to %3 for %3], %8[%c0 to %6 for %6]) : (!stream.resource<*>{%0}, !stream.resource<*>{%3}, !stream.resource<*>{%6}) -> %8{%6}
    %10 = stream.async.transfer %9 : !stream.resource<*>{%6} -> !stream.resource<external>{%6}
    %11 = stream.tensor.export %10 : tensor<3x3xf32> in !stream.resource<external>{%6} -> !hal.buffer_view
    return %11 : !hal.buffer_view
  }
}


// -----// IR Dump After Canonicalizer (canonicalize) //----- //
func.func @matmul_static(%arg0: !hal.buffer_view, %arg1: !hal.buffer_view, %arg2: !hal.buffer_view) -> !hal.buffer_view attributes {iree.abi.stub} {
  %c0 = arith.constant 0 : index
  %c3 = arith.constant 3 : index
  %c1 = arith.constant 1 : index
  %c553648160_i32 = arith.constant 553648160 : i32
  %c1_i32 = arith.constant 1 : i32
  %c5 = arith.constant 5 : index
  hal.buffer_view.assert<%arg0 : !hal.buffer_view> message("tensor") shape([%c3, %c5]) type(%c553648160_i32) encoding(%c1_i32)
  %0 = stream.tensor.sizeof tensor<3x5xf32> : index
  %1 = stream.tensor.import %arg0 : !hal.buffer_view -> tensor<3x5xf32> in !stream.resource<external>{%0}
  %2 = stream.async.transfer %1 : !stream.resource<external>{%0} -> !stream.resource<*>{%0}
  hal.buffer_view.assert<%arg1 : !hal.buffer_view> message("tensor") shape([%c5, %c3]) type(%c553648160_i32) encoding(%c1_i32)
  %3 = stream.tensor.sizeof tensor<5x3xf32> : index
  %4 = stream.tensor.import %arg1 : !hal.buffer_view -> tensor<5x3xf32> in !stream.resource<external>{%3}
  %5 = stream.async.transfer %4 : !stream.resource<external>{%3} -> !stream.resource<*>{%3}
  hal.buffer_view.assert<%arg2 : !hal.buffer_view> message("tensor") shape([%c3, %c3]) type(%c553648160_i32) encoding(%c1_i32)
  %6 = stream.tensor.sizeof tensor<3x3xf32> : index
  %7 = stream.tensor.import %arg2 : !hal.buffer_view -> tensor<3x3xf32> in !stream.resource<external>{%6}
  %8 = stream.async.transfer %7 : !stream.resource<external>{%6} -> !stream.resource<*>{%6}
  %9 = stream.async.dispatch @matmul_static_dispatch_0::@matmul_static_dispatch_0_matmul_3x3x5[%c3, %c3, %c1](%2[%c0 to %0 for %0], %5[%c0 to %3 for %3], %8[%c0 to %6 for %6]) : (!stream.resource<*>{%0}, !stream.resource<*>{%3}, !stream.resource<*>{%6}) -> %8{%6}
  %10 = stream.async.transfer %9 : !stream.resource<*>{%6} -> !stream.resource<external>{%6}
  %11 = stream.tensor.export %10 : tensor<3x3xf32> in !stream.resource<external>{%6} -> !hal.buffer_view
  return %11 : !hal.buffer_view
}

// -----// IR Dump After CSE (cse) //----- //
func.func @matmul_static(%arg0: !hal.buffer_view, %arg1: !hal.buffer_view, %arg2: !hal.buffer_view) -> !hal.buffer_view attributes {iree.abi.stub} {
  %c0 = arith.constant 0 : index
  %c3 = arith.constant 3 : index
  %c1 = arith.constant 1 : index
  %c553648160_i32 = arith.constant 553648160 : i32
  %c1_i32 = arith.constant 1 : i32
  %c5 = arith.constant 5 : index
  hal.buffer_view.assert<%arg0 : !hal.buffer_view> message("tensor") shape([%c3, %c5]) type(%c553648160_i32) encoding(%c1_i32)
  %0 = stream.tensor.sizeof tensor<3x5xf32> : index
  %1 = stream.tensor.import %arg0 : !hal.buffer_view -> tensor<3x5xf32> in !stream.resource<external>{%0}
  %2 = stream.async.transfer %1 : !stream.resource<external>{%0} -> !stream.resource<*>{%0}
  hal.buffer_view.assert<%arg1 : !hal.buffer_view> message("tensor") shape([%c5, %c3]) type(%c553648160_i32) encoding(%c1_i32)
  %3 = stream.tensor.sizeof tensor<5x3xf32> : index
  %4 = stream.tensor.import %arg1 : !hal.buffer_view -> tensor<5x3xf32> in !stream.resource<external>{%3}
  %5 = stream.async.transfer %4 : !stream.resource<external>{%3} -> !stream.resource<*>{%3}
  hal.buffer_view.assert<%arg2 : !hal.buffer_view> message("tensor") shape([%c3, %c3]) type(%c553648160_i32) encoding(%c1_i32)
  %6 = stream.tensor.sizeof tensor<3x3xf32> : index
  %7 = stream.tensor.import %arg2 : !hal.buffer_view -> tensor<3x3xf32> in !stream.resource<external>{%6}
  %8 = stream.async.transfer %7 : !stream.resource<external>{%6} -> !stream.resource<*>{%6}
  %9 = stream.async.dispatch @matmul_static_dispatch_0::@matmul_static_dispatch_0_matmul_3x3x5[%c3, %c3, %c1](%2[%c0 to %0 for %0], %5[%c0 to %3 for %3], %8[%c0 to %6 for %6]) : (!stream.resource<*>{%0}, !stream.resource<*>{%3}, !stream.resource<*>{%6}) -> %8{%6}
  %10 = stream.async.transfer %9 : !stream.resource<*>{%6} -> !stream.resource<external>{%6}
  %11 = stream.tensor.export %10 : tensor<3x3xf32> in !stream.resource<external>{%6} -> !hal.buffer_view
  return %11 : !hal.buffer_view
}

// -----// IR Dump After SimplifyGlobalAccesses (iree-util-simplify-global-accesses) //----- //
func.func @matmul_static(%arg0: !hal.buffer_view, %arg1: !hal.buffer_view, %arg2: !hal.buffer_view) -> !hal.buffer_view attributes {iree.abi.stub} {
  %c0 = arith.constant 0 : index
  %c3 = arith.constant 3 : index
  %c1 = arith.constant 1 : index
  %c553648160_i32 = arith.constant 553648160 : i32
  %c1_i32 = arith.constant 1 : i32
  %c5 = arith.constant 5 : index
  hal.buffer_view.assert<%arg0 : !hal.buffer_view> message("tensor") shape([%c3, %c5]) type(%c553648160_i32) encoding(%c1_i32)
  %0 = stream.tensor.sizeof tensor<3x5xf32> : index
  %1 = stream.tensor.import %arg0 : !hal.buffer_view -> tensor<3x5xf32> in !stream.resource<external>{%0}
  %2 = stream.async.transfer %1 : !stream.resource<external>{%0} -> !stream.resource<*>{%0}
  hal.buffer_view.assert<%arg1 : !hal.buffer_view> message("tensor") shape([%c5, %c3]) type(%c553648160_i32) encoding(%c1_i32)
  %3 = stream.tensor.sizeof tensor<5x3xf32> : index
  %4 = stream.tensor.import %arg1 : !hal.buffer_view -> tensor<5x3xf32> in !stream.resource<external>{%3}
  %5 = stream.async.transfer %4 : !stream.resource<external>{%3} -> !stream.resource<*>{%3}
  hal.buffer_view.assert<%arg2 : !hal.buffer_view> message("tensor") shape([%c3, %c3]) type(%c553648160_i32) encoding(%c1_i32)
  %6 = stream.tensor.sizeof tensor<3x3xf32> : index
  %7 = stream.tensor.import %arg2 : !hal.buffer_view -> tensor<3x3xf32> in !stream.resource<external>{%6}
  %8 = stream.async.transfer %7 : !stream.resource<external>{%6} -> !stream.resource<*>{%6}
  %9 = stream.async.dispatch @matmul_static_dispatch_0::@matmul_static_dispatch_0_matmul_3x3x5[%c3, %c3, %c1](%2[%c0 to %0 for %0], %5[%c0 to %3 for %3], %8[%c0 to %6 for %6]) : (!stream.resource<*>{%0}, !stream.resource<*>{%3}, !stream.resource<*>{%6}) -> %8{%6}
  %10 = stream.async.transfer %9 : !stream.resource<*>{%6} -> !stream.resource<external>{%6}
  %11 = stream.tensor.export %10 : tensor<3x3xf32> in !stream.resource<external>{%6} -> !hal.buffer_view
  return %11 : !hal.buffer_view
}

// -----// IR Dump After ApplyPatterns (iree-util-apply-patterns) //----- //
module {
  stream.executable private @matmul_static_dispatch_0 {
    stream.executable.export public @matmul_static_dispatch_0_matmul_3x3x5 workgroups(%arg0: index, %arg1: index, %arg2: index) -> (index, index, index) {
      %x, %y, %z = flow.dispatch.workgroup_count_from_dag_root %arg0, %arg1, %arg2
      stream.return %x, %y, %z : index, index, index
    }
    builtin.module {
      func.func @matmul_static_dispatch_0_matmul_3x3x5(%arg0: !stream.binding, %arg1: !stream.binding, %arg2: !stream.binding) {
        %c0 = arith.constant 0 : index
        %0 = stream.binding.subspan %arg0[%c0] : !stream.binding -> !flow.dispatch.tensor<readonly:tensor<3x5xf32>>
        %1 = stream.binding.subspan %arg1[%c0] : !stream.binding -> !flow.dispatch.tensor<readonly:tensor<5x3xf32>>
        %2 = stream.binding.subspan %arg2[%c0] : !stream.binding -> !flow.dispatch.tensor<readwrite:tensor<3x3xf32>>
        %3 = flow.dispatch.tensor.load %0, offsets = [0, 0], sizes = [3, 5], strides = [1, 1] : !flow.dispatch.tensor<readonly:tensor<3x5xf32>> -> tensor<3x5xf32>
        %4 = flow.dispatch.tensor.load %1, offsets = [0, 0], sizes = [5, 3], strides = [1, 1] : !flow.dispatch.tensor<readonly:tensor<5x3xf32>> -> tensor<5x3xf32>
        %5 = flow.dispatch.tensor.load %2, offsets = [0, 0], sizes = [3, 3], strides = [1, 1] : !flow.dispatch.tensor<readwrite:tensor<3x3xf32>> -> tensor<3x3xf32>
        %6 = linalg.matmul ins(%3, %4 : tensor<3x5xf32>, tensor<5x3xf32>) outs(%5 : tensor<3x3xf32>) -> tensor<3x3xf32>
        flow.dispatch.tensor.store %6, %2, offsets = [0, 0], sizes = [3, 3], strides = [1, 1] : tensor<3x3xf32> -> !flow.dispatch.tensor<readwrite:tensor<3x3xf32>>
        return
      }
    }
  }
  func.func @matmul_static(%arg0: !hal.buffer_view, %arg1: !hal.buffer_view, %arg2: !hal.buffer_view) -> !hal.buffer_view attributes {iree.abi.stub} {
    %c0 = arith.constant 0 : index
    %c3 = arith.constant 3 : index
    %c1 = arith.constant 1 : index
    %c553648160_i32 = arith.constant 553648160 : i32
    %c1_i32 = arith.constant 1 : i32
    %c5 = arith.constant 5 : index
    hal.buffer_view.assert<%arg0 : !hal.buffer_view> message("tensor") shape([%c3, %c5]) type(%c553648160_i32) encoding(%c1_i32)
    %0 = stream.tensor.sizeof tensor<3x5xf32> : index
    %1 = stream.tensor.import %arg0 : !hal.buffer_view -> tensor<3x5xf32> in !stream.resource<external>{%0}
    %2 = stream.async.transfer %1 : !stream.resource<external>{%0} -> !stream.resource<*>{%0}
    hal.buffer_view.assert<%arg1 : !hal.buffer_view> message("tensor") shape([%c5, %c3]) type(%c553648160_i32) encoding(%c1_i32)
    %3 = stream.tensor.sizeof tensor<5x3xf32> : index
    %4 = stream.tensor.import %arg1 : !hal.buffer_view -> tensor<5x3xf32> in !stream.resource<external>{%3}
    %5 = stream.async.transfer %4 : !stream.resource<external>{%3} -> !stream.resource<*>{%3}
    hal.buffer_view.assert<%arg2 : !hal.buffer_view> message("tensor") shape([%c3, %c3]) type(%c553648160_i32) encoding(%c1_i32)
    %6 = stream.tensor.sizeof tensor<3x3xf32> : index
    %7 = stream.tensor.import %arg2 : !hal.buffer_view -> tensor<3x3xf32> in !stream.resource<external>{%6}
    %8 = stream.async.transfer %7 : !stream.resource<external>{%6} -> !stream.resource<*>{%6}
    %9 = stream.async.dispatch @matmul_static_dispatch_0::@matmul_static_dispatch_0_matmul_3x3x5[%c3, %c3, %c1](%2[%c0 to %0 for %0], %5[%c0 to %3 for %3], %8[%c0 to %6 for %6]) : (!stream.resource<*>{%0}, !stream.resource<*>{%3}, !stream.resource<*>{%6}) -> %8{%6}
    %10 = stream.async.transfer %9 : !stream.resource<*>{%6} -> !stream.resource<external>{%6}
    %11 = stream.tensor.export %10 : tensor<3x3xf32> in !stream.resource<external>{%6} -> !hal.buffer_view
    return %11 : !hal.buffer_view
  }
}


// -----// IR Dump After FoldGlobals (iree-util-fold-globals) //----- //
module {
  stream.executable private @matmul_static_dispatch_0 {
    stream.executable.export public @matmul_static_dispatch_0_matmul_3x3x5 workgroups(%arg0: index, %arg1: index, %arg2: index) -> (index, index, index) {
      %x, %y, %z = flow.dispatch.workgroup_count_from_dag_root %arg0, %arg1, %arg2
      stream.return %x, %y, %z : index, index, index
    }
    builtin.module {
      func.func @matmul_static_dispatch_0_matmul_3x3x5(%arg0: !stream.binding, %arg1: !stream.binding, %arg2: !stream.binding) {
        %c0 = arith.constant 0 : index
        %0 = stream.binding.subspan %arg0[%c0] : !stream.binding -> !flow.dispatch.tensor<readonly:tensor<3x5xf32>>
        %1 = stream.binding.subspan %arg1[%c0] : !stream.binding -> !flow.dispatch.tensor<readonly:tensor<5x3xf32>>
        %2 = stream.binding.subspan %arg2[%c0] : !stream.binding -> !flow.dispatch.tensor<readwrite:tensor<3x3xf32>>
        %3 = flow.dispatch.tensor.load %0, offsets = [0, 0], sizes = [3, 5], strides = [1, 1] : !flow.dispatch.tensor<readonly:tensor<3x5xf32>> -> tensor<3x5xf32>
        %4 = flow.dispatch.tensor.load %1, offsets = [0, 0], sizes = [5, 3], strides = [1, 1] : !flow.dispatch.tensor<readonly:tensor<5x3xf32>> -> tensor<5x3xf32>
        %5 = flow.dispatch.tensor.load %2, offsets = [0, 0], sizes = [3, 3], strides = [1, 1] : !flow.dispatch.tensor<readwrite:tensor<3x3xf32>> -> tensor<3x3xf32>
        %6 = linalg.matmul ins(%3, %4 : tensor<3x5xf32>, tensor<5x3xf32>) outs(%5 : tensor<3x3xf32>) -> tensor<3x3xf32>
        flow.dispatch.tensor.store %6, %2, offsets = [0, 0], sizes = [3, 3], strides = [1, 1] : tensor<3x3xf32> -> !flow.dispatch.tensor<readwrite:tensor<3x3xf32>>
        return
      }
    }
  }
  func.func @matmul_static(%arg0: !hal.buffer_view, %arg1: !hal.buffer_view, %arg2: !hal.buffer_view) -> !hal.buffer_view attributes {iree.abi.stub} {
    %c0 = arith.constant 0 : index
    %c3 = arith.constant 3 : index
    %c1 = arith.constant 1 : index
    %c553648160_i32 = arith.constant 553648160 : i32
    %c1_i32 = arith.constant 1 : i32
    %c5 = arith.constant 5 : index
    hal.buffer_view.assert<%arg0 : !hal.buffer_view> message("tensor") shape([%c3, %c5]) type(%c553648160_i32) encoding(%c1_i32)
    %0 = stream.tensor.sizeof tensor<3x5xf32> : index
    %1 = stream.tensor.import %arg0 : !hal.buffer_view -> tensor<3x5xf32> in !stream.resource<external>{%0}
    %2 = stream.async.transfer %1 : !stream.resource<external>{%0} -> !stream.resource<*>{%0}
    hal.buffer_view.assert<%arg1 : !hal.buffer_view> message("tensor") shape([%c5, %c3]) type(%c553648160_i32) encoding(%c1_i32)
    %3 = stream.tensor.sizeof tensor<5x3xf32> : index
    %4 = stream.tensor.import %arg1 : !hal.buffer_view -> tensor<5x3xf32> in !stream.resource<external>{%3}
    %5 = stream.async.transfer %4 : !stream.resource<external>{%3} -> !stream.resource<*>{%3}
    hal.buffer_view.assert<%arg2 : !hal.buffer_view> message("tensor") shape([%c3, %c3]) type(%c553648160_i32) encoding(%c1_i32)
    %6 = stream.tensor.sizeof tensor<3x3xf32> : index
    %7 = stream.tensor.import %arg2 : !hal.buffer_view -> tensor<3x3xf32> in !stream.resource<external>{%6}
    %8 = stream.async.transfer %7 : !stream.resource<external>{%6} -> !stream.resource<*>{%6}
    %9 = stream.async.dispatch @matmul_static_dispatch_0::@matmul_static_dispatch_0_matmul_3x3x5[%c3, %c3, %c1](%2[%c0 to %0 for %0], %5[%c0 to %3 for %3], %8[%c0 to %6 for %6]) : (!stream.resource<*>{%0}, !stream.resource<*>{%3}, !stream.resource<*>{%6}) -> %8{%6}
    %10 = stream.async.transfer %9 : !stream.resource<*>{%6} -> !stream.resource<external>{%6}
    %11 = stream.tensor.export %10 : tensor<3x3xf32> in !stream.resource<external>{%6} -> !hal.buffer_view
    return %11 : !hal.buffer_view
  }
}


// -----// IR Dump After FuseGlobals (iree-util-fuse-globals) //----- //
module {
  stream.executable private @matmul_static_dispatch_0 {
    stream.executable.export public @matmul_static_dispatch_0_matmul_3x3x5 workgroups(%arg0: index, %arg1: index, %arg2: index) -> (index, index, index) {
      %x, %y, %z = flow.dispatch.workgroup_count_from_dag_root %arg0, %arg1, %arg2
      stream.return %x, %y, %z : index, index, index
    }
    builtin.module {
      func.func @matmul_static_dispatch_0_matmul_3x3x5(%arg0: !stream.binding, %arg1: !stream.binding, %arg2: !stream.binding) {
        %c0 = arith.constant 0 : index
        %0 = stream.binding.subspan %arg0[%c0] : !stream.binding -> !flow.dispatch.tensor<readonly:tensor<3x5xf32>>
        %1 = stream.binding.subspan %arg1[%c0] : !stream.binding -> !flow.dispatch.tensor<readonly:tensor<5x3xf32>>
        %2 = stream.binding.subspan %arg2[%c0] : !stream.binding -> !flow.dispatch.tensor<readwrite:tensor<3x3xf32>>
        %3 = flow.dispatch.tensor.load %0, offsets = [0, 0], sizes = [3, 5], strides = [1, 1] : !flow.dispatch.tensor<readonly:tensor<3x5xf32>> -> tensor<3x5xf32>
        %4 = flow.dispatch.tensor.load %1, offsets = [0, 0], sizes = [5, 3], strides = [1, 1] : !flow.dispatch.tensor<readonly:tensor<5x3xf32>> -> tensor<5x3xf32>
        %5 = flow.dispatch.tensor.load %2, offsets = [0, 0], sizes = [3, 3], strides = [1, 1] : !flow.dispatch.tensor<readwrite:tensor<3x3xf32>> -> tensor<3x3xf32>
        %6 = linalg.matmul ins(%3, %4 : tensor<3x5xf32>, tensor<5x3xf32>) outs(%5 : tensor<3x3xf32>) -> tensor<3x3xf32>
        flow.dispatch.tensor.store %6, %2, offsets = [0, 0], sizes = [3, 3], strides = [1, 1] : tensor<3x3xf32> -> !flow.dispatch.tensor<readwrite:tensor<3x3xf32>>
        return
      }
    }
  }
  func.func @matmul_static(%arg0: !hal.buffer_view, %arg1: !hal.buffer_view, %arg2: !hal.buffer_view) -> !hal.buffer_view attributes {iree.abi.stub} {
    %c0 = arith.constant 0 : index
    %c3 = arith.constant 3 : index
    %c1 = arith.constant 1 : index
    %c553648160_i32 = arith.constant 553648160 : i32
    %c1_i32 = arith.constant 1 : i32
    %c5 = arith.constant 5 : index
    hal.buffer_view.assert<%arg0 : !hal.buffer_view> message("tensor") shape([%c3, %c5]) type(%c553648160_i32) encoding(%c1_i32)
    %0 = stream.tensor.sizeof tensor<3x5xf32> : index
    %1 = stream.tensor.import %arg0 : !hal.buffer_view -> tensor<3x5xf32> in !stream.resource<external>{%0}
    %2 = stream.async.transfer %1 : !stream.resource<external>{%0} -> !stream.resource<*>{%0}
    hal.buffer_view.assert<%arg1 : !hal.buffer_view> message("tensor") shape([%c5, %c3]) type(%c553648160_i32) encoding(%c1_i32)
    %3 = stream.tensor.sizeof tensor<5x3xf32> : index
    %4 = stream.tensor.import %arg1 : !hal.buffer_view -> tensor<5x3xf32> in !stream.resource<external>{%3}
    %5 = stream.async.transfer %4 : !stream.resource<external>{%3} -> !stream.resource<*>{%3}
    hal.buffer_view.assert<%arg2 : !hal.buffer_view> message("tensor") shape([%c3, %c3]) type(%c553648160_i32) encoding(%c1_i32)
    %6 = stream.tensor.sizeof tensor<3x3xf32> : index
    %7 = stream.tensor.import %arg2 : !hal.buffer_view -> tensor<3x3xf32> in !stream.resource<external>{%6}
    %8 = stream.async.transfer %7 : !stream.resource<external>{%6} -> !stream.resource<*>{%6}
    %9 = stream.async.dispatch @matmul_static_dispatch_0::@matmul_static_dispatch_0_matmul_3x3x5[%c3, %c3, %c1](%2[%c0 to %0 for %0], %5[%c0 to %3 for %3], %8[%c0 to %6 for %6]) : (!stream.resource<*>{%0}, !stream.resource<*>{%3}, !stream.resource<*>{%6}) -> %8{%6}
    %10 = stream.async.transfer %9 : !stream.resource<*>{%6} -> !stream.resource<external>{%6}
    %11 = stream.tensor.export %10 : tensor<3x3xf32> in !stream.resource<external>{%6} -> !hal.buffer_view
    return %11 : !hal.buffer_view
  }
}


// -----// IR Dump After IPO (iree-util-ipo) //----- //
module {
  stream.executable private @matmul_static_dispatch_0 {
    stream.executable.export public @matmul_static_dispatch_0_matmul_3x3x5 workgroups(%arg0: index, %arg1: index, %arg2: index) -> (index, index, index) {
      %x, %y, %z = flow.dispatch.workgroup_count_from_dag_root %arg0, %arg1, %arg2
      stream.return %x, %y, %z : index, index, index
    }
    builtin.module {
      func.func @matmul_static_dispatch_0_matmul_3x3x5(%arg0: !stream.binding, %arg1: !stream.binding, %arg2: !stream.binding) {
        %c0 = arith.constant 0 : index
        %0 = stream.binding.subspan %arg0[%c0] : !stream.binding -> !flow.dispatch.tensor<readonly:tensor<3x5xf32>>
        %1 = stream.binding.subspan %arg1[%c0] : !stream.binding -> !flow.dispatch.tensor<readonly:tensor<5x3xf32>>
        %2 = stream.binding.subspan %arg2[%c0] : !stream.binding -> !flow.dispatch.tensor<readwrite:tensor<3x3xf32>>
        %3 = flow.dispatch.tensor.load %0, offsets = [0, 0], sizes = [3, 5], strides = [1, 1] : !flow.dispatch.tensor<readonly:tensor<3x5xf32>> -> tensor<3x5xf32>
        %4 = flow.dispatch.tensor.load %1, offsets = [0, 0], sizes = [5, 3], strides = [1, 1] : !flow.dispatch.tensor<readonly:tensor<5x3xf32>> -> tensor<5x3xf32>
        %5 = flow.dispatch.tensor.load %2, offsets = [0, 0], sizes = [3, 3], strides = [1, 1] : !flow.dispatch.tensor<readwrite:tensor<3x3xf32>> -> tensor<3x3xf32>
        %6 = linalg.matmul ins(%3, %4 : tensor<3x5xf32>, tensor<5x3xf32>) outs(%5 : tensor<3x3xf32>) -> tensor<3x3xf32>
        flow.dispatch.tensor.store %6, %2, offsets = [0, 0], sizes = [3, 3], strides = [1, 1] : tensor<3x3xf32> -> !flow.dispatch.tensor<readwrite:tensor<3x3xf32>>
        return
      }
    }
  }
  func.func @matmul_static(%arg0: !hal.buffer_view, %arg1: !hal.buffer_view, %arg2: !hal.buffer_view) -> !hal.buffer_view attributes {iree.abi.stub} {
    %c0 = arith.constant 0 : index
    %c3 = arith.constant 3 : index
    %c1 = arith.constant 1 : index
    %c553648160_i32 = arith.constant 553648160 : i32
    %c1_i32 = arith.constant 1 : i32
    %c5 = arith.constant 5 : index
    hal.buffer_view.assert<%arg0 : !hal.buffer_view> message("tensor") shape([%c3, %c5]) type(%c553648160_i32) encoding(%c1_i32)
    %0 = stream.tensor.sizeof tensor<3x5xf32> : index
    %1 = stream.tensor.import %arg0 : !hal.buffer_view -> tensor<3x5xf32> in !stream.resource<external>{%0}
    %2 = stream.async.transfer %1 : !stream.resource<external>{%0} -> !stream.resource<*>{%0}
    hal.buffer_view.assert<%arg1 : !hal.buffer_view> message("tensor") shape([%c5, %c3]) type(%c553648160_i32) encoding(%c1_i32)
    %3 = stream.tensor.sizeof tensor<5x3xf32> : index
    %4 = stream.tensor.import %arg1 : !hal.buffer_view -> tensor<5x3xf32> in !stream.resource<external>{%3}
    %5 = stream.async.transfer %4 : !stream.resource<external>{%3} -> !stream.resource<*>{%3}
    hal.buffer_view.assert<%arg2 : !hal.buffer_view> message("tensor") shape([%c3, %c3]) type(%c553648160_i32) encoding(%c1_i32)
    %6 = stream.tensor.sizeof tensor<3x3xf32> : index
    %7 = stream.tensor.import %arg2 : !hal.buffer_view -> tensor<3x3xf32> in !stream.resource<external>{%6}
    %8 = stream.async.transfer %7 : !stream.resource<external>{%6} -> !stream.resource<*>{%6}
    %9 = stream.async.dispatch @matmul_static_dispatch_0::@matmul_static_dispatch_0_matmul_3x3x5[%c3, %c3, %c1](%2[%c0 to %0 for %0], %5[%c0 to %3 for %3], %8[%c0 to %6 for %6]) : (!stream.resource<*>{%0}, !stream.resource<*>{%3}, !stream.resource<*>{%6}) -> %8{%6}
    %10 = stream.async.transfer %9 : !stream.resource<*>{%6} -> !stream.resource<external>{%6}
    %11 = stream.tensor.export %10 : tensor<3x3xf32> in !stream.resource<external>{%6} -> !hal.buffer_view
    return %11 : !hal.buffer_view
  }
}


// -----// IR Dump After CombineInitializers (iree-util-combine-initializers) //----- //
module {
  stream.executable private @matmul_static_dispatch_0 {
    stream.executable.export public @matmul_static_dispatch_0_matmul_3x3x5 workgroups(%arg0: index, %arg1: index, %arg2: index) -> (index, index, index) {
      %x, %y, %z = flow.dispatch.workgroup_count_from_dag_root %arg0, %arg1, %arg2
      stream.return %x, %y, %z : index, index, index
    }
    builtin.module {
      func.func @matmul_static_dispatch_0_matmul_3x3x5(%arg0: !stream.binding, %arg1: !stream.binding, %arg2: !stream.binding) {
        %c0 = arith.constant 0 : index
        %0 = stream.binding.subspan %arg0[%c0] : !stream.binding -> !flow.dispatch.tensor<readonly:tensor<3x5xf32>>
        %1 = stream.binding.subspan %arg1[%c0] : !stream.binding -> !flow.dispatch.tensor<readonly:tensor<5x3xf32>>
        %2 = stream.binding.subspan %arg2[%c0] : !stream.binding -> !flow.dispatch.tensor<readwrite:tensor<3x3xf32>>
        %3 = flow.dispatch.tensor.load %0, offsets = [0, 0], sizes = [3, 5], strides = [1, 1] : !flow.dispatch.tensor<readonly:tensor<3x5xf32>> -> tensor<3x5xf32>
        %4 = flow.dispatch.tensor.load %1, offsets = [0, 0], sizes = [5, 3], strides = [1, 1] : !flow.dispatch.tensor<readonly:tensor<5x3xf32>> -> tensor<5x3xf32>
        %5 = flow.dispatch.tensor.load %2, offsets = [0, 0], sizes = [3, 3], strides = [1, 1] : !flow.dispatch.tensor<readwrite:tensor<3x3xf32>> -> tensor<3x3xf32>
        %6 = linalg.matmul ins(%3, %4 : tensor<3x5xf32>, tensor<5x3xf32>) outs(%5 : tensor<3x3xf32>) -> tensor<3x3xf32>
        flow.dispatch.tensor.store %6, %2, offsets = [0, 0], sizes = [3, 3], strides = [1, 1] : tensor<3x3xf32> -> !flow.dispatch.tensor<readwrite:tensor<3x3xf32>>
        return
      }
    }
  }
  func.func @matmul_static(%arg0: !hal.buffer_view, %arg1: !hal.buffer_view, %arg2: !hal.buffer_view) -> !hal.buffer_view attributes {iree.abi.stub} {
    %c0 = arith.constant 0 : index
    %c3 = arith.constant 3 : index
    %c1 = arith.constant 1 : index
    %c553648160_i32 = arith.constant 553648160 : i32
    %c1_i32 = arith.constant 1 : i32
    %c5 = arith.constant 5 : index
    hal.buffer_view.assert<%arg0 : !hal.buffer_view> message("tensor") shape([%c3, %c5]) type(%c553648160_i32) encoding(%c1_i32)
    %0 = stream.tensor.sizeof tensor<3x5xf32> : index
    %1 = stream.tensor.import %arg0 : !hal.buffer_view -> tensor<3x5xf32> in !stream.resource<external>{%0}
    %2 = stream.async.transfer %1 : !stream.resource<external>{%0} -> !stream.resource<*>{%0}
    hal.buffer_view.assert<%arg1 : !hal.buffer_view> message("tensor") shape([%c5, %c3]) type(%c553648160_i32) encoding(%c1_i32)
    %3 = stream.tensor.sizeof tensor<5x3xf32> : index
    %4 = stream.tensor.import %arg1 : !hal.buffer_view -> tensor<5x3xf32> in !stream.resource<external>{%3}
    %5 = stream.async.transfer %4 : !stream.resource<external>{%3} -> !stream.resource<*>{%3}
    hal.buffer_view.assert<%arg2 : !hal.buffer_view> message("tensor") shape([%c3, %c3]) type(%c553648160_i32) encoding(%c1_i32)
    %6 = stream.tensor.sizeof tensor<3x3xf32> : index
    %7 = stream.tensor.import %arg2 : !hal.buffer_view -> tensor<3x3xf32> in !stream.resource<external>{%6}
    %8 = stream.async.transfer %7 : !stream.resource<external>{%6} -> !stream.resource<*>{%6}
    %9 = stream.async.dispatch @matmul_static_dispatch_0::@matmul_static_dispatch_0_matmul_3x3x5[%c3, %c3, %c1](%2[%c0 to %0 for %0], %5[%c0 to %3 for %3], %8[%c0 to %6 for %6]) : (!stream.resource<*>{%0}, !stream.resource<*>{%3}, !stream.resource<*>{%6}) -> %8{%6}
    %10 = stream.async.transfer %9 : !stream.resource<*>{%6} -> !stream.resource<external>{%6}
    %11 = stream.tensor.export %10 : tensor<3x3xf32> in !stream.resource<external>{%6} -> !hal.buffer_view
    return %11 : !hal.buffer_view
  }
}


// -----// IR Dump After EncodeDeviceTensors (iree-stream-encode-device-tensors) //----- //
stream.executable private @matmul_static_dispatch_0 {
  stream.executable.export public @matmul_static_dispatch_0_matmul_3x3x5 workgroups(%arg0: index, %arg1: index, %arg2: index) -> (index, index, index) {
    %x, %y, %z = flow.dispatch.workgroup_count_from_dag_root %arg0, %arg1, %arg2
    stream.return %x, %y, %z : index, index, index
  }
  builtin.module {
    func.func @matmul_static_dispatch_0_matmul_3x3x5(%arg0: !stream.binding, %arg1: !stream.binding, %arg2: !stream.binding) {
      %c0 = arith.constant 0 : index
      %0 = stream.binding.subspan %arg0[%c0] : !stream.binding -> !flow.dispatch.tensor<readonly:tensor<3x5xf32>>
      %1 = stream.binding.subspan %arg1[%c0] : !stream.binding -> !flow.dispatch.tensor<readonly:tensor<5x3xf32>>
      %2 = stream.binding.subspan %arg2[%c0] : !stream.binding -> !flow.dispatch.tensor<readwrite:tensor<3x3xf32>>
      %3 = flow.dispatch.tensor.load %0, offsets = [0, 0], sizes = [3, 5], strides = [1, 1] : !flow.dispatch.tensor<readonly:tensor<3x5xf32>> -> tensor<3x5xf32>
      %4 = flow.dispatch.tensor.load %1, offsets = [0, 0], sizes = [5, 3], strides = [1, 1] : !flow.dispatch.tensor<readonly:tensor<5x3xf32>> -> tensor<5x3xf32>
      %5 = flow.dispatch.tensor.load %2, offsets = [0, 0], sizes = [3, 3], strides = [1, 1] : !flow.dispatch.tensor<readwrite:tensor<3x3xf32>> -> tensor<3x3xf32>
      %6 = linalg.matmul ins(%3, %4 : tensor<3x5xf32>, tensor<5x3xf32>) outs(%5 : tensor<3x3xf32>) -> tensor<3x3xf32>
      flow.dispatch.tensor.store %6, %2, offsets = [0, 0], sizes = [3, 3], strides = [1, 1] : tensor<3x3xf32> -> !flow.dispatch.tensor<readwrite:tensor<3x3xf32>>
      return
    }
  }
}

// -----// IR Dump After EncodeHostTensors (iree-stream-encode-host-tensors) //----- //
func.func @matmul_static(%arg0: !hal.buffer_view, %arg1: !hal.buffer_view, %arg2: !hal.buffer_view) -> !hal.buffer_view attributes {iree.abi.stub} {
  %c60 = arith.constant 60 : index
  %c36 = arith.constant 36 : index
  %c0 = arith.constant 0 : index
  %c3 = arith.constant 3 : index
  %c1 = arith.constant 1 : index
  %c553648160_i32 = arith.constant 553648160 : i32
  %c1_i32 = arith.constant 1 : i32
  %c5 = arith.constant 5 : index
  hal.buffer_view.assert<%arg0 : !hal.buffer_view> message("tensor") shape([%c3, %c5]) type(%c553648160_i32) encoding(%c1_i32)
  %0 = stream.tensor.import %arg0 : !hal.buffer_view -> tensor<3x5xf32> in !stream.resource<external>{%c60}
  %1 = stream.async.transfer %0 : !stream.resource<external>{%c60} -> !stream.resource<*>{%c60}
  hal.buffer_view.assert<%arg1 : !hal.buffer_view> message("tensor") shape([%c5, %c3]) type(%c553648160_i32) encoding(%c1_i32)
  %2 = stream.tensor.import %arg1 : !hal.buffer_view -> tensor<5x3xf32> in !stream.resource<external>{%c60}
  %3 = stream.async.transfer %2 : !stream.resource<external>{%c60} -> !stream.resource<*>{%c60}
  hal.buffer_view.assert<%arg2 : !hal.buffer_view> message("tensor") shape([%c3, %c3]) type(%c553648160_i32) encoding(%c1_i32)
  %4 = stream.tensor.import %arg2 : !hal.buffer_view -> tensor<3x3xf32> in !stream.resource<external>{%c36}
  %5 = stream.async.transfer %4 : !stream.resource<external>{%c36} -> !stream.resource<*>{%c36}
  %6 = stream.async.dispatch @matmul_static_dispatch_0::@matmul_static_dispatch_0_matmul_3x3x5[%c3, %c3, %c1](%1[%c0 to %c60 for %c60], %3[%c0 to %c60 for %c60], %5[%c0 to %c36 for %c36]) : (!stream.resource<*>{%c60}, !stream.resource<*>{%c60}, !stream.resource<*>{%c36}) -> %5{%c36}
  %7 = stream.async.transfer %6 : !stream.resource<*>{%c36} -> !stream.resource<external>{%c36}
  %8 = stream.tensor.export %7 : tensor<3x3xf32> in !stream.resource<external>{%c36} -> !hal.buffer_view
  return %8 : !hal.buffer_view
}

// -----// IR Dump After MaterializeBuiltins (iree-stream-materialize-builtins) //----- //
module {
  stream.executable private @matmul_static_dispatch_0 {
    stream.executable.export public @matmul_static_dispatch_0_matmul_3x3x5 workgroups(%arg0: index, %arg1: index, %arg2: index) -> (index, index, index) {
      %x, %y, %z = flow.dispatch.workgroup_count_from_dag_root %arg0, %arg1, %arg2
      stream.return %x, %y, %z : index, index, index
    }
    builtin.module {
      func.func @matmul_static_dispatch_0_matmul_3x3x5(%arg0: !stream.binding, %arg1: !stream.binding, %arg2: !stream.binding) {
        %c0 = arith.constant 0 : index
        %0 = stream.binding.subspan %arg0[%c0] : !stream.binding -> !flow.dispatch.tensor<readonly:tensor<3x5xf32>>
        %1 = stream.binding.subspan %arg1[%c0] : !stream.binding -> !flow.dispatch.tensor<readonly:tensor<5x3xf32>>
        %2 = stream.binding.subspan %arg2[%c0] : !stream.binding -> !flow.dispatch.tensor<readwrite:tensor<3x3xf32>>
        %3 = flow.dispatch.tensor.load %0, offsets = [0, 0], sizes = [3, 5], strides = [1, 1] : !flow.dispatch.tensor<readonly:tensor<3x5xf32>> -> tensor<3x5xf32>
        %4 = flow.dispatch.tensor.load %1, offsets = [0, 0], sizes = [5, 3], strides = [1, 1] : !flow.dispatch.tensor<readonly:tensor<5x3xf32>> -> tensor<5x3xf32>
        %5 = flow.dispatch.tensor.load %2, offsets = [0, 0], sizes = [3, 3], strides = [1, 1] : !flow.dispatch.tensor<readwrite:tensor<3x3xf32>> -> tensor<3x3xf32>
        %6 = linalg.matmul ins(%3, %4 : tensor<3x5xf32>, tensor<5x3xf32>) outs(%5 : tensor<3x3xf32>) -> tensor<3x3xf32>
        flow.dispatch.tensor.store %6, %2, offsets = [0, 0], sizes = [3, 3], strides = [1, 1] : tensor<3x3xf32> -> !flow.dispatch.tensor<readwrite:tensor<3x3xf32>>
        return
      }
    }
  }
  func.func @matmul_static(%arg0: !hal.buffer_view, %arg1: !hal.buffer_view, %arg2: !hal.buffer_view) -> !hal.buffer_view attributes {iree.abi.stub} {
    %c60 = arith.constant 60 : index
    %c36 = arith.constant 36 : index
    %c0 = arith.constant 0 : index
    %c3 = arith.constant 3 : index
    %c1 = arith.constant 1 : index
    %c553648160_i32 = arith.constant 553648160 : i32
    %c1_i32 = arith.constant 1 : i32
    %c5 = arith.constant 5 : index
    hal.buffer_view.assert<%arg0 : !hal.buffer_view> message("tensor") shape([%c3, %c5]) type(%c553648160_i32) encoding(%c1_i32)
    %0 = stream.tensor.import %arg0 : !hal.buffer_view -> tensor<3x5xf32> in !stream.resource<external>{%c60}
    %1 = stream.async.transfer %0 : !stream.resource<external>{%c60} -> !stream.resource<*>{%c60}
    hal.buffer_view.assert<%arg1 : !hal.buffer_view> message("tensor") shape([%c5, %c3]) type(%c553648160_i32) encoding(%c1_i32)
    %2 = stream.tensor.import %arg1 : !hal.buffer_view -> tensor<5x3xf32> in !stream.resource<external>{%c60}
    %3 = stream.async.transfer %2 : !stream.resource<external>{%c60} -> !stream.resource<*>{%c60}
    hal.buffer_view.assert<%arg2 : !hal.buffer_view> message("tensor") shape([%c3, %c3]) type(%c553648160_i32) encoding(%c1_i32)
    %4 = stream.tensor.import %arg2 : !hal.buffer_view -> tensor<3x3xf32> in !stream.resource<external>{%c36}
    %5 = stream.async.transfer %4 : !stream.resource<external>{%c36} -> !stream.resource<*>{%c36}
    %6 = stream.async.dispatch @matmul_static_dispatch_0::@matmul_static_dispatch_0_matmul_3x3x5[%c3, %c3, %c1](%1[%c0 to %c60 for %c60], %3[%c0 to %c60 for %c60], %5[%c0 to %c36 for %c36]) : (!stream.resource<*>{%c60}, !stream.resource<*>{%c60}, !stream.resource<*>{%c36}) -> %5{%c36}
    %7 = stream.async.transfer %6 : !stream.resource<*>{%c36} -> !stream.resource<external>{%c36}
    %8 = stream.tensor.export %7 : tensor<3x3xf32> in !stream.resource<external>{%c36} -> !hal.buffer_view
    return %8 : !hal.buffer_view
  }
}


// -----// IR Dump After Canonicalizer (canonicalize) //----- //
func.func @matmul_static(%arg0: !hal.buffer_view, %arg1: !hal.buffer_view, %arg2: !hal.buffer_view) -> !hal.buffer_view attributes {iree.abi.stub} {
  %c60 = arith.constant 60 : index
  %c36 = arith.constant 36 : index
  %c0 = arith.constant 0 : index
  %c3 = arith.constant 3 : index
  %c1 = arith.constant 1 : index
  %c553648160_i32 = arith.constant 553648160 : i32
  %c1_i32 = arith.constant 1 : i32
  %c5 = arith.constant 5 : index
  hal.buffer_view.assert<%arg0 : !hal.buffer_view> message("tensor") shape([%c3, %c5]) type(%c553648160_i32) encoding(%c1_i32)
  %0 = stream.tensor.import %arg0 : !hal.buffer_view -> tensor<3x5xf32> in !stream.resource<external>{%c60}
  %1 = stream.async.transfer %0 : !stream.resource<external>{%c60} -> !stream.resource<*>{%c60}
  hal.buffer_view.assert<%arg1 : !hal.buffer_view> message("tensor") shape([%c5, %c3]) type(%c553648160_i32) encoding(%c1_i32)
  %2 = stream.tensor.import %arg1 : !hal.buffer_view -> tensor<5x3xf32> in !stream.resource<external>{%c60}
  %3 = stream.async.transfer %2 : !stream.resource<external>{%c60} -> !stream.resource<*>{%c60}
  hal.buffer_view.assert<%arg2 : !hal.buffer_view> message("tensor") shape([%c3, %c3]) type(%c553648160_i32) encoding(%c1_i32)
  %4 = stream.tensor.import %arg2 : !hal.buffer_view -> tensor<3x3xf32> in !stream.resource<external>{%c36}
  %5 = stream.async.transfer %4 : !stream.resource<external>{%c36} -> !stream.resource<*>{%c36}
  %6 = stream.async.dispatch @matmul_static_dispatch_0::@matmul_static_dispatch_0_matmul_3x3x5[%c3, %c3, %c1](%1[%c0 to %c60 for %c60], %3[%c0 to %c60 for %c60], %5[%c0 to %c36 for %c36]) : (!stream.resource<*>{%c60}, !stream.resource<*>{%c60}, !stream.resource<*>{%c36}) -> %5{%c36}
  %7 = stream.async.transfer %6 : !stream.resource<*>{%c36} -> !stream.resource<external>{%c36}
  %8 = stream.tensor.export %7 : tensor<3x3xf32> in !stream.resource<external>{%c36} -> !hal.buffer_view
  return %8 : !hal.buffer_view
}

// -----// IR Dump After CSE (cse) //----- //
func.func @matmul_static(%arg0: !hal.buffer_view, %arg1: !hal.buffer_view, %arg2: !hal.buffer_view) -> !hal.buffer_view attributes {iree.abi.stub} {
  %c60 = arith.constant 60 : index
  %c36 = arith.constant 36 : index
  %c0 = arith.constant 0 : index
  %c3 = arith.constant 3 : index
  %c1 = arith.constant 1 : index
  %c553648160_i32 = arith.constant 553648160 : i32
  %c1_i32 = arith.constant 1 : i32
  %c5 = arith.constant 5 : index
  hal.buffer_view.assert<%arg0 : !hal.buffer_view> message("tensor") shape([%c3, %c5]) type(%c553648160_i32) encoding(%c1_i32)
  %0 = stream.tensor.import %arg0 : !hal.buffer_view -> tensor<3x5xf32> in !stream.resource<external>{%c60}
  %1 = stream.async.transfer %0 : !stream.resource<external>{%c60} -> !stream.resource<*>{%c60}
  hal.buffer_view.assert<%arg1 : !hal.buffer_view> message("tensor") shape([%c5, %c3]) type(%c553648160_i32) encoding(%c1_i32)
  %2 = stream.tensor.import %arg1 : !hal.buffer_view -> tensor<5x3xf32> in !stream.resource<external>{%c60}
  %3 = stream.async.transfer %2 : !stream.resource<external>{%c60} -> !stream.resource<*>{%c60}
  hal.buffer_view.assert<%arg2 : !hal.buffer_view> message("tensor") shape([%c3, %c3]) type(%c553648160_i32) encoding(%c1_i32)
  %4 = stream.tensor.import %arg2 : !hal.buffer_view -> tensor<3x3xf32> in !stream.resource<external>{%c36}
  %5 = stream.async.transfer %4 : !stream.resource<external>{%c36} -> !stream.resource<*>{%c36}
  %6 = stream.async.dispatch @matmul_static_dispatch_0::@matmul_static_dispatch_0_matmul_3x3x5[%c3, %c3, %c1](%1[%c0 to %c60 for %c60], %3[%c0 to %c60 for %c60], %5[%c0 to %c36 for %c36]) : (!stream.resource<*>{%c60}, !stream.resource<*>{%c60}, !stream.resource<*>{%c36}) -> %5{%c36}
  %7 = stream.async.transfer %6 : !stream.resource<*>{%c36} -> !stream.resource<external>{%c36}
  %8 = stream.tensor.export %7 : tensor<3x3xf32> in !stream.resource<external>{%c36} -> !hal.buffer_view
  return %8 : !hal.buffer_view
}

// -----// IR Dump After SimplifyGlobalAccesses (iree-util-simplify-global-accesses) //----- //
func.func @matmul_static(%arg0: !hal.buffer_view, %arg1: !hal.buffer_view, %arg2: !hal.buffer_view) -> !hal.buffer_view attributes {iree.abi.stub} {
  %c60 = arith.constant 60 : index
  %c36 = arith.constant 36 : index
  %c0 = arith.constant 0 : index
  %c3 = arith.constant 3 : index
  %c1 = arith.constant 1 : index
  %c553648160_i32 = arith.constant 553648160 : i32
  %c1_i32 = arith.constant 1 : i32
  %c5 = arith.constant 5 : index
  hal.buffer_view.assert<%arg0 : !hal.buffer_view> message("tensor") shape([%c3, %c5]) type(%c553648160_i32) encoding(%c1_i32)
  %0 = stream.tensor.import %arg0 : !hal.buffer_view -> tensor<3x5xf32> in !stream.resource<external>{%c60}
  %1 = stream.async.transfer %0 : !stream.resource<external>{%c60} -> !stream.resource<*>{%c60}
  hal.buffer_view.assert<%arg1 : !hal.buffer_view> message("tensor") shape([%c5, %c3]) type(%c553648160_i32) encoding(%c1_i32)
  %2 = stream.tensor.import %arg1 : !hal.buffer_view -> tensor<5x3xf32> in !stream.resource<external>{%c60}
  %3 = stream.async.transfer %2 : !stream.resource<external>{%c60} -> !stream.resource<*>{%c60}
  hal.buffer_view.assert<%arg2 : !hal.buffer_view> message("tensor") shape([%c3, %c3]) type(%c553648160_i32) encoding(%c1_i32)
  %4 = stream.tensor.import %arg2 : !hal.buffer_view -> tensor<3x3xf32> in !stream.resource<external>{%c36}
  %5 = stream.async.transfer %4 : !stream.resource<external>{%c36} -> !stream.resource<*>{%c36}
  %6 = stream.async.dispatch @matmul_static_dispatch_0::@matmul_static_dispatch_0_matmul_3x3x5[%c3, %c3, %c1](%1[%c0 to %c60 for %c60], %3[%c0 to %c60 for %c60], %5[%c0 to %c36 for %c36]) : (!stream.resource<*>{%c60}, !stream.resource<*>{%c60}, !stream.resource<*>{%c36}) -> %5{%c36}
  %7 = stream.async.transfer %6 : !stream.resource<*>{%c36} -> !stream.resource<external>{%c36}
  %8 = stream.tensor.export %7 : tensor<3x3xf32> in !stream.resource<external>{%c36} -> !hal.buffer_view
  return %8 : !hal.buffer_view
}

// -----// IR Dump After ApplyPatterns (iree-util-apply-patterns) //----- //
module {
  stream.executable private @matmul_static_dispatch_0 {
    stream.executable.export public @matmul_static_dispatch_0_matmul_3x3x5 workgroups(%arg0: index, %arg1: index, %arg2: index) -> (index, index, index) {
      %x, %y, %z = flow.dispatch.workgroup_count_from_dag_root %arg0, %arg1, %arg2
      stream.return %x, %y, %z : index, index, index
    }
    builtin.module {
      func.func @matmul_static_dispatch_0_matmul_3x3x5(%arg0: !stream.binding, %arg1: !stream.binding, %arg2: !stream.binding) {
        %c0 = arith.constant 0 : index
        %0 = stream.binding.subspan %arg0[%c0] : !stream.binding -> !flow.dispatch.tensor<readonly:tensor<3x5xf32>>
        %1 = stream.binding.subspan %arg1[%c0] : !stream.binding -> !flow.dispatch.tensor<readonly:tensor<5x3xf32>>
        %2 = stream.binding.subspan %arg2[%c0] : !stream.binding -> !flow.dispatch.tensor<readwrite:tensor<3x3xf32>>
        %3 = flow.dispatch.tensor.load %0, offsets = [0, 0], sizes = [3, 5], strides = [1, 1] : !flow.dispatch.tensor<readonly:tensor<3x5xf32>> -> tensor<3x5xf32>
        %4 = flow.dispatch.tensor.load %1, offsets = [0, 0], sizes = [5, 3], strides = [1, 1] : !flow.dispatch.tensor<readonly:tensor<5x3xf32>> -> tensor<5x3xf32>
        %5 = flow.dispatch.tensor.load %2, offsets = [0, 0], sizes = [3, 3], strides = [1, 1] : !flow.dispatch.tensor<readwrite:tensor<3x3xf32>> -> tensor<3x3xf32>
        %6 = linalg.matmul ins(%3, %4 : tensor<3x5xf32>, tensor<5x3xf32>) outs(%5 : tensor<3x3xf32>) -> tensor<3x3xf32>
        flow.dispatch.tensor.store %6, %2, offsets = [0, 0], sizes = [3, 3], strides = [1, 1] : tensor<3x3xf32> -> !flow.dispatch.tensor<readwrite:tensor<3x3xf32>>
        return
      }
    }
  }
  func.func @matmul_static(%arg0: !hal.buffer_view, %arg1: !hal.buffer_view, %arg2: !hal.buffer_view) -> !hal.buffer_view attributes {iree.abi.stub} {
    %c60 = arith.constant 60 : index
    %c36 = arith.constant 36 : index
    %c0 = arith.constant 0 : index
    %c3 = arith.constant 3 : index
    %c1 = arith.constant 1 : index
    %c553648160_i32 = arith.constant 553648160 : i32
    %c1_i32 = arith.constant 1 : i32
    %c5 = arith.constant 5 : index
    hal.buffer_view.assert<%arg0 : !hal.buffer_view> message("tensor") shape([%c3, %c5]) type(%c553648160_i32) encoding(%c1_i32)
    %0 = stream.tensor.import %arg0 : !hal.buffer_view -> tensor<3x5xf32> in !stream.resource<external>{%c60}
    %1 = stream.async.transfer %0 : !stream.resource<external>{%c60} -> !stream.resource<*>{%c60}
    hal.buffer_view.assert<%arg1 : !hal.buffer_view> message("tensor") shape([%c5, %c3]) type(%c553648160_i32) encoding(%c1_i32)
    %2 = stream.tensor.import %arg1 : !hal.buffer_view -> tensor<5x3xf32> in !stream.resource<external>{%c60}
    %3 = stream.async.transfer %2 : !stream.resource<external>{%c60} -> !stream.resource<*>{%c60}
    hal.buffer_view.assert<%arg2 : !hal.buffer_view> message("tensor") shape([%c3, %c3]) type(%c553648160_i32) encoding(%c1_i32)
    %4 = stream.tensor.import %arg2 : !hal.buffer_view -> tensor<3x3xf32> in !stream.resource<external>{%c36}
    %5 = stream.async.transfer %4 : !stream.resource<external>{%c36} -> !stream.resource<*>{%c36}
    %6 = stream.async.dispatch @matmul_static_dispatch_0::@matmul_static_dispatch_0_matmul_3x3x5[%c3, %c3, %c1](%1[%c0 to %c60 for %c60], %3[%c0 to %c60 for %c60], %5[%c0 to %c36 for %c36]) : (!stream.resource<*>{%c60}, !stream.resource<*>{%c60}, !stream.resource<*>{%c36}) -> %5{%c36}
    %7 = stream.async.transfer %6 : !stream.resource<*>{%c36} -> !stream.resource<external>{%c36}
    %8 = stream.tensor.export %7 : tensor<3x3xf32> in !stream.resource<external>{%c36} -> !hal.buffer_view
    return %8 : !hal.buffer_view
  }
}


// -----// IR Dump After FoldGlobals (iree-util-fold-globals) //----- //
module {
  stream.executable private @matmul_static_dispatch_0 {
    stream.executable.export public @matmul_static_dispatch_0_matmul_3x3x5 workgroups(%arg0: index, %arg1: index, %arg2: index) -> (index, index, index) {
      %x, %y, %z = flow.dispatch.workgroup_count_from_dag_root %arg0, %arg1, %arg2
      stream.return %x, %y, %z : index, index, index
    }
    builtin.module {
      func.func @matmul_static_dispatch_0_matmul_3x3x5(%arg0: !stream.binding, %arg1: !stream.binding, %arg2: !stream.binding) {
        %c0 = arith.constant 0 : index
        %0 = stream.binding.subspan %arg0[%c0] : !stream.binding -> !flow.dispatch.tensor<readonly:tensor<3x5xf32>>
        %1 = stream.binding.subspan %arg1[%c0] : !stream.binding -> !flow.dispatch.tensor<readonly:tensor<5x3xf32>>
        %2 = stream.binding.subspan %arg2[%c0] : !stream.binding -> !flow.dispatch.tensor<readwrite:tensor<3x3xf32>>
        %3 = flow.dispatch.tensor.load %0, offsets = [0, 0], sizes = [3, 5], strides = [1, 1] : !flow.dispatch.tensor<readonly:tensor<3x5xf32>> -> tensor<3x5xf32>
        %4 = flow.dispatch.tensor.load %1, offsets = [0, 0], sizes = [5, 3], strides = [1, 1] : !flow.dispatch.tensor<readonly:tensor<5x3xf32>> -> tensor<5x3xf32>
        %5 = flow.dispatch.tensor.load %2, offsets = [0, 0], sizes = [3, 3], strides = [1, 1] : !flow.dispatch.tensor<readwrite:tensor<3x3xf32>> -> tensor<3x3xf32>
        %6 = linalg.matmul ins(%3, %4 : tensor<3x5xf32>, tensor<5x3xf32>) outs(%5 : tensor<3x3xf32>) -> tensor<3x3xf32>
        flow.dispatch.tensor.store %6, %2, offsets = [0, 0], sizes = [3, 3], strides = [1, 1] : tensor<3x3xf32> -> !flow.dispatch.tensor<readwrite:tensor<3x3xf32>>
        return
      }
    }
  }
  func.func @matmul_static(%arg0: !hal.buffer_view, %arg1: !hal.buffer_view, %arg2: !hal.buffer_view) -> !hal.buffer_view attributes {iree.abi.stub} {
    %c60 = arith.constant 60 : index
    %c36 = arith.constant 36 : index
    %c0 = arith.constant 0 : index
    %c3 = arith.constant 3 : index
    %c1 = arith.constant 1 : index
    %c553648160_i32 = arith.constant 553648160 : i32
    %c1_i32 = arith.constant 1 : i32
    %c5 = arith.constant 5 : index
    hal.buffer_view.assert<%arg0 : !hal.buffer_view> message("tensor") shape([%c3, %c5]) type(%c553648160_i32) encoding(%c1_i32)
    %0 = stream.tensor.import %arg0 : !hal.buffer_view -> tensor<3x5xf32> in !stream.resource<external>{%c60}
    %1 = stream.async.transfer %0 : !stream.resource<external>{%c60} -> !stream.resource<*>{%c60}
    hal.buffer_view.assert<%arg1 : !hal.buffer_view> message("tensor") shape([%c5, %c3]) type(%c553648160_i32) encoding(%c1_i32)
    %2 = stream.tensor.import %arg1 : !hal.buffer_view -> tensor<5x3xf32> in !stream.resource<external>{%c60}
    %3 = stream.async.transfer %2 : !stream.resource<external>{%c60} -> !stream.resource<*>{%c60}
    hal.buffer_view.assert<%arg2 : !hal.buffer_view> message("tensor") shape([%c3, %c3]) type(%c553648160_i32) encoding(%c1_i32)
    %4 = stream.tensor.import %arg2 : !hal.buffer_view -> tensor<3x3xf32> in !stream.resource<external>{%c36}
    %5 = stream.async.transfer %4 : !stream.resource<external>{%c36} -> !stream.resource<*>{%c36}
    %6 = stream.async.dispatch @matmul_static_dispatch_0::@matmul_static_dispatch_0_matmul_3x3x5[%c3, %c3, %c1](%1[%c0 to %c60 for %c60], %3[%c0 to %c60 for %c60], %5[%c0 to %c36 for %c36]) : (!stream.resource<*>{%c60}, !stream.resource<*>{%c60}, !stream.resource<*>{%c36}) -> %5{%c36}
    %7 = stream.async.transfer %6 : !stream.resource<*>{%c36} -> !stream.resource<external>{%c36}
    %8 = stream.tensor.export %7 : tensor<3x3xf32> in !stream.resource<external>{%c36} -> !hal.buffer_view
    return %8 : !hal.buffer_view
  }
}


// -----// IR Dump After FuseGlobals (iree-util-fuse-globals) //----- //
module {
  stream.executable private @matmul_static_dispatch_0 {
    stream.executable.export public @matmul_static_dispatch_0_matmul_3x3x5 workgroups(%arg0: index, %arg1: index, %arg2: index) -> (index, index, index) {
      %x, %y, %z = flow.dispatch.workgroup_count_from_dag_root %arg0, %arg1, %arg2
      stream.return %x, %y, %z : index, index, index
    }
    builtin.module {
      func.func @matmul_static_dispatch_0_matmul_3x3x5(%arg0: !stream.binding, %arg1: !stream.binding, %arg2: !stream.binding) {
        %c0 = arith.constant 0 : index
        %0 = stream.binding.subspan %arg0[%c0] : !stream.binding -> !flow.dispatch.tensor<readonly:tensor<3x5xf32>>
        %1 = stream.binding.subspan %arg1[%c0] : !stream.binding -> !flow.dispatch.tensor<readonly:tensor<5x3xf32>>
        %2 = stream.binding.subspan %arg2[%c0] : !stream.binding -> !flow.dispatch.tensor<readwrite:tensor<3x3xf32>>
        %3 = flow.dispatch.tensor.load %0, offsets = [0, 0], sizes = [3, 5], strides = [1, 1] : !flow.dispatch.tensor<readonly:tensor<3x5xf32>> -> tensor<3x5xf32>
        %4 = flow.dispatch.tensor.load %1, offsets = [0, 0], sizes = [5, 3], strides = [1, 1] : !flow.dispatch.tensor<readonly:tensor<5x3xf32>> -> tensor<5x3xf32>
        %5 = flow.dispatch.tensor.load %2, offsets = [0, 0], sizes = [3, 3], strides = [1, 1] : !flow.dispatch.tensor<readwrite:tensor<3x3xf32>> -> tensor<3x3xf32>
        %6 = linalg.matmul ins(%3, %4 : tensor<3x5xf32>, tensor<5x3xf32>) outs(%5 : tensor<3x3xf32>) -> tensor<3x3xf32>
        flow.dispatch.tensor.store %6, %2, offsets = [0, 0], sizes = [3, 3], strides = [1, 1] : tensor<3x3xf32> -> !flow.dispatch.tensor<readwrite:tensor<3x3xf32>>
        return
      }
    }
  }
  func.func @matmul_static(%arg0: !hal.buffer_view, %arg1: !hal.buffer_view, %arg2: !hal.buffer_view) -> !hal.buffer_view attributes {iree.abi.stub} {
    %c60 = arith.constant 60 : index
    %c36 = arith.constant 36 : index
    %c0 = arith.constant 0 : index
    %c3 = arith.constant 3 : index
    %c1 = arith.constant 1 : index
    %c553648160_i32 = arith.constant 553648160 : i32
    %c1_i32 = arith.constant 1 : i32
    %c5 = arith.constant 5 : index
    hal.buffer_view.assert<%arg0 : !hal.buffer_view> message("tensor") shape([%c3, %c5]) type(%c553648160_i32) encoding(%c1_i32)
    %0 = stream.tensor.import %arg0 : !hal.buffer_view -> tensor<3x5xf32> in !stream.resource<external>{%c60}
    %1 = stream.async.transfer %0 : !stream.resource<external>{%c60} -> !stream.resource<*>{%c60}
    hal.buffer_view.assert<%arg1 : !hal.buffer_view> message("tensor") shape([%c5, %c3]) type(%c553648160_i32) encoding(%c1_i32)
    %2 = stream.tensor.import %arg1 : !hal.buffer_view -> tensor<5x3xf32> in !stream.resource<external>{%c60}
    %3 = stream.async.transfer %2 : !stream.resource<external>{%c60} -> !stream.resource<*>{%c60}
    hal.buffer_view.assert<%arg2 : !hal.buffer_view> message("tensor") shape([%c3, %c3]) type(%c553648160_i32) encoding(%c1_i32)
    %4 = stream.tensor.import %arg2 : !hal.buffer_view -> tensor<3x3xf32> in !stream.resource<external>{%c36}
    %5 = stream.async.transfer %4 : !stream.resource<external>{%c36} -> !stream.resource<*>{%c36}
    %6 = stream.async.dispatch @matmul_static_dispatch_0::@matmul_static_dispatch_0_matmul_3x3x5[%c3, %c3, %c1](%1[%c0 to %c60 for %c60], %3[%c0 to %c60 for %c60], %5[%c0 to %c36 for %c36]) : (!stream.resource<*>{%c60}, !stream.resource<*>{%c60}, !stream.resource<*>{%c36}) -> %5{%c36}
    %7 = stream.async.transfer %6 : !stream.resource<*>{%c36} -> !stream.resource<external>{%c36}
    %8 = stream.tensor.export %7 : tensor<3x3xf32> in !stream.resource<external>{%c36} -> !hal.buffer_view
    return %8 : !hal.buffer_view
  }
}


// -----// IR Dump After IPO (iree-util-ipo) //----- //
module {
  stream.executable private @matmul_static_dispatch_0 {
    stream.executable.export public @matmul_static_dispatch_0_matmul_3x3x5 workgroups(%arg0: index, %arg1: index, %arg2: index) -> (index, index, index) {
      %x, %y, %z = flow.dispatch.workgroup_count_from_dag_root %arg0, %arg1, %arg2
      stream.return %x, %y, %z : index, index, index
    }
    builtin.module {
      func.func @matmul_static_dispatch_0_matmul_3x3x5(%arg0: !stream.binding, %arg1: !stream.binding, %arg2: !stream.binding) {
        %c0 = arith.constant 0 : index
        %0 = stream.binding.subspan %arg0[%c0] : !stream.binding -> !flow.dispatch.tensor<readonly:tensor<3x5xf32>>
        %1 = stream.binding.subspan %arg1[%c0] : !stream.binding -> !flow.dispatch.tensor<readonly:tensor<5x3xf32>>
        %2 = stream.binding.subspan %arg2[%c0] : !stream.binding -> !flow.dispatch.tensor<readwrite:tensor<3x3xf32>>
        %3 = flow.dispatch.tensor.load %0, offsets = [0, 0], sizes = [3, 5], strides = [1, 1] : !flow.dispatch.tensor<readonly:tensor<3x5xf32>> -> tensor<3x5xf32>
        %4 = flow.dispatch.tensor.load %1, offsets = [0, 0], sizes = [5, 3], strides = [1, 1] : !flow.dispatch.tensor<readonly:tensor<5x3xf32>> -> tensor<5x3xf32>
        %5 = flow.dispatch.tensor.load %2, offsets = [0, 0], sizes = [3, 3], strides = [1, 1] : !flow.dispatch.tensor<readwrite:tensor<3x3xf32>> -> tensor<3x3xf32>
        %6 = linalg.matmul ins(%3, %4 : tensor<3x5xf32>, tensor<5x3xf32>) outs(%5 : tensor<3x3xf32>) -> tensor<3x3xf32>
        flow.dispatch.tensor.store %6, %2, offsets = [0, 0], sizes = [3, 3], strides = [1, 1] : tensor<3x3xf32> -> !flow.dispatch.tensor<readwrite:tensor<3x3xf32>>
        return
      }
    }
  }
  func.func @matmul_static(%arg0: !hal.buffer_view, %arg1: !hal.buffer_view, %arg2: !hal.buffer_view) -> !hal.buffer_view attributes {iree.abi.stub} {
    %c60 = arith.constant 60 : index
    %c36 = arith.constant 36 : index
    %c0 = arith.constant 0 : index
    %c3 = arith.constant 3 : index
    %c1 = arith.constant 1 : index
    %c553648160_i32 = arith.constant 553648160 : i32
    %c1_i32 = arith.constant 1 : i32
    %c5 = arith.constant 5 : index
    hal.buffer_view.assert<%arg0 : !hal.buffer_view> message("tensor") shape([%c3, %c5]) type(%c553648160_i32) encoding(%c1_i32)
    %0 = stream.tensor.import %arg0 : !hal.buffer_view -> tensor<3x5xf32> in !stream.resource<external>{%c60}
    %1 = stream.async.transfer %0 : !stream.resource<external>{%c60} -> !stream.resource<*>{%c60}
    hal.buffer_view.assert<%arg1 : !hal.buffer_view> message("tensor") shape([%c5, %c3]) type(%c553648160_i32) encoding(%c1_i32)
    %2 = stream.tensor.import %arg1 : !hal.buffer_view -> tensor<5x3xf32> in !stream.resource<external>{%c60}
    %3 = stream.async.transfer %2 : !stream.resource<external>{%c60} -> !stream.resource<*>{%c60}
    hal.buffer_view.assert<%arg2 : !hal.buffer_view> message("tensor") shape([%c3, %c3]) type(%c553648160_i32) encoding(%c1_i32)
    %4 = stream.tensor.import %arg2 : !hal.buffer_view -> tensor<3x3xf32> in !stream.resource<external>{%c36}
    %5 = stream.async.transfer %4 : !stream.resource<external>{%c36} -> !stream.resource<*>{%c36}
    %6 = stream.async.dispatch @matmul_static_dispatch_0::@matmul_static_dispatch_0_matmul_3x3x5[%c3, %c3, %c1](%1[%c0 to %c60 for %c60], %3[%c0 to %c60 for %c60], %5[%c0 to %c36 for %c36]) : (!stream.resource<*>{%c60}, !stream.resource<*>{%c60}, !stream.resource<*>{%c36}) -> %5{%c36}
    %7 = stream.async.transfer %6 : !stream.resource<*>{%c36} -> !stream.resource<external>{%c36}
    %8 = stream.tensor.export %7 : tensor<3x3xf32> in !stream.resource<external>{%c36} -> !hal.buffer_view
    return %8 : !hal.buffer_view
  }
}


// -----// IR Dump After MaterializeCopyOnWrite (iree-stream-materialize-copy-on-write) //----- //
func.func @matmul_static(%arg0: !hal.buffer_view, %arg1: !hal.buffer_view, %arg2: !hal.buffer_view) -> !hal.buffer_view attributes {iree.abi.stub} {
  %c60 = arith.constant 60 : index
  %c36 = arith.constant 36 : index
  %c0 = arith.constant 0 : index
  %c3 = arith.constant 3 : index
  %c1 = arith.constant 1 : index
  %c553648160_i32 = arith.constant 553648160 : i32
  %c1_i32 = arith.constant 1 : i32
  %c5 = arith.constant 5 : index
  hal.buffer_view.assert<%arg0 : !hal.buffer_view> message("tensor") shape([%c3, %c5]) type(%c553648160_i32) encoding(%c1_i32)
  %0 = stream.tensor.import %arg0 : !hal.buffer_view -> tensor<3x5xf32> in !stream.resource<external>{%c60}
  %1 = stream.async.transfer %0 : !stream.resource<external>{%c60} -> !stream.resource<*>{%c60}
  hal.buffer_view.assert<%arg1 : !hal.buffer_view> message("tensor") shape([%c5, %c3]) type(%c553648160_i32) encoding(%c1_i32)
  %2 = stream.tensor.import %arg1 : !hal.buffer_view -> tensor<5x3xf32> in !stream.resource<external>{%c60}
  %3 = stream.async.transfer %2 : !stream.resource<external>{%c60} -> !stream.resource<*>{%c60}
  hal.buffer_view.assert<%arg2 : !hal.buffer_view> message("tensor") shape([%c3, %c3]) type(%c553648160_i32) encoding(%c1_i32)
  %4 = stream.tensor.import %arg2 : !hal.buffer_view -> tensor<3x3xf32> in !stream.resource<external>{%c36}
  %5 = stream.async.transfer %4 : !stream.resource<external>{%c36} -> !stream.resource<*>{%c36}
  %6 = stream.async.dispatch @matmul_static_dispatch_0::@matmul_static_dispatch_0_matmul_3x3x5[%c3, %c3, %c1](%1[%c0 to %c60 for %c60], %3[%c0 to %c60 for %c60], %5[%c0 to %c36 for %c36]) : (!stream.resource<*>{%c60}, !stream.resource<*>{%c60}, !stream.resource<*>{%c36}) -> %5{%c36}
  %7 = stream.async.transfer %6 : !stream.resource<*>{%c36} -> !stream.resource<external>{%c36}
  %8 = stream.tensor.export %7 : tensor<3x3xf32> in !stream.resource<external>{%c36} -> !hal.buffer_view
  return %8 : !hal.buffer_view
}

// -----// IR Dump After ElideAsyncCopies (iree-stream-elide-async-copies) //----- //
module {
  stream.executable private @matmul_static_dispatch_0 {
    stream.executable.export public @matmul_static_dispatch_0_matmul_3x3x5 workgroups(%arg0: index, %arg1: index, %arg2: index) -> (index, index, index) {
      %x, %y, %z = flow.dispatch.workgroup_count_from_dag_root %arg0, %arg1, %arg2
      stream.return %x, %y, %z : index, index, index
    }
    builtin.module {
      func.func @matmul_static_dispatch_0_matmul_3x3x5(%arg0: !stream.binding, %arg1: !stream.binding, %arg2: !stream.binding) {
        %c0 = arith.constant 0 : index
        %0 = stream.binding.subspan %arg0[%c0] : !stream.binding -> !flow.dispatch.tensor<readonly:tensor<3x5xf32>>
        %1 = stream.binding.subspan %arg1[%c0] : !stream.binding -> !flow.dispatch.tensor<readonly:tensor<5x3xf32>>
        %2 = stream.binding.subspan %arg2[%c0] : !stream.binding -> !flow.dispatch.tensor<readwrite:tensor<3x3xf32>>
        %3 = flow.dispatch.tensor.load %0, offsets = [0, 0], sizes = [3, 5], strides = [1, 1] : !flow.dispatch.tensor<readonly:tensor<3x5xf32>> -> tensor<3x5xf32>
        %4 = flow.dispatch.tensor.load %1, offsets = [0, 0], sizes = [5, 3], strides = [1, 1] : !flow.dispatch.tensor<readonly:tensor<5x3xf32>> -> tensor<5x3xf32>
        %5 = flow.dispatch.tensor.load %2, offsets = [0, 0], sizes = [3, 3], strides = [1, 1] : !flow.dispatch.tensor<readwrite:tensor<3x3xf32>> -> tensor<3x3xf32>
        %6 = linalg.matmul ins(%3, %4 : tensor<3x5xf32>, tensor<5x3xf32>) outs(%5 : tensor<3x3xf32>) -> tensor<3x3xf32>
        flow.dispatch.tensor.store %6, %2, offsets = [0, 0], sizes = [3, 3], strides = [1, 1] : tensor<3x3xf32> -> !flow.dispatch.tensor<readwrite:tensor<3x3xf32>>
        return
      }
    }
  }
  func.func @matmul_static(%arg0: !hal.buffer_view, %arg1: !hal.buffer_view, %arg2: !hal.buffer_view) -> !hal.buffer_view attributes {iree.abi.stub} {
    %c60 = arith.constant 60 : index
    %c36 = arith.constant 36 : index
    %c0 = arith.constant 0 : index
    %c3 = arith.constant 3 : index
    %c1 = arith.constant 1 : index
    %c553648160_i32 = arith.constant 553648160 : i32
    %c1_i32 = arith.constant 1 : i32
    %c5 = arith.constant 5 : index
    hal.buffer_view.assert<%arg0 : !hal.buffer_view> message("tensor") shape([%c3, %c5]) type(%c553648160_i32) encoding(%c1_i32)
    %0 = stream.tensor.import %arg0 : !hal.buffer_view -> tensor<3x5xf32> in !stream.resource<external>{%c60}
    %1 = stream.async.transfer %0 : !stream.resource<external>{%c60} -> !stream.resource<*>{%c60}
    hal.buffer_view.assert<%arg1 : !hal.buffer_view> message("tensor") shape([%c5, %c3]) type(%c553648160_i32) encoding(%c1_i32)
    %2 = stream.tensor.import %arg1 : !hal.buffer_view -> tensor<5x3xf32> in !stream.resource<external>{%c60}
    %3 = stream.async.transfer %2 : !stream.resource<external>{%c60} -> !stream.resource<*>{%c60}
    hal.buffer_view.assert<%arg2 : !hal.buffer_view> message("tensor") shape([%c3, %c3]) type(%c553648160_i32) encoding(%c1_i32)
    %4 = stream.tensor.import %arg2 : !hal.buffer_view -> tensor<3x3xf32> in !stream.resource<external>{%c36}
    %5 = stream.async.transfer %4 : !stream.resource<external>{%c36} -> !stream.resource<*>{%c36}
    %6 = stream.async.dispatch @matmul_static_dispatch_0::@matmul_static_dispatch_0_matmul_3x3x5[%c3, %c3, %c1](%1[%c0 to %c60 for %c60], %3[%c0 to %c60 for %c60], %5[%c0 to %c36 for %c36]) : (!stream.resource<*>{%c60}, !stream.resource<*>{%c60}, !stream.resource<*>{%c36}) -> %5{%c36}
    %7 = stream.async.transfer %6 : !stream.resource<*>{%c36} -> !stream.resource<external>{%c36}
    %8 = stream.tensor.export %7 : tensor<3x3xf32> in !stream.resource<external>{%c36} -> !hal.buffer_view
    return %8 : !hal.buffer_view
  }
}


// -----// IR Dump After Canonicalizer (canonicalize) //----- //
func.func @matmul_static(%arg0: !hal.buffer_view, %arg1: !hal.buffer_view, %arg2: !hal.buffer_view) -> !hal.buffer_view attributes {iree.abi.stub} {
  %c60 = arith.constant 60 : index
  %c36 = arith.constant 36 : index
  %c0 = arith.constant 0 : index
  %c3 = arith.constant 3 : index
  %c1 = arith.constant 1 : index
  %c553648160_i32 = arith.constant 553648160 : i32
  %c1_i32 = arith.constant 1 : i32
  %c5 = arith.constant 5 : index
  hal.buffer_view.assert<%arg0 : !hal.buffer_view> message("tensor") shape([%c3, %c5]) type(%c553648160_i32) encoding(%c1_i32)
  %0 = stream.tensor.import %arg0 : !hal.buffer_view -> tensor<3x5xf32> in !stream.resource<external>{%c60}
  %1 = stream.async.transfer %0 : !stream.resource<external>{%c60} -> !stream.resource<*>{%c60}
  hal.buffer_view.assert<%arg1 : !hal.buffer_view> message("tensor") shape([%c5, %c3]) type(%c553648160_i32) encoding(%c1_i32)
  %2 = stream.tensor.import %arg1 : !hal.buffer_view -> tensor<5x3xf32> in !stream.resource<external>{%c60}
  %3 = stream.async.transfer %2 : !stream.resource<external>{%c60} -> !stream.resource<*>{%c60}
  hal.buffer_view.assert<%arg2 : !hal.buffer_view> message("tensor") shape([%c3, %c3]) type(%c553648160_i32) encoding(%c1_i32)
  %4 = stream.tensor.import %arg2 : !hal.buffer_view -> tensor<3x3xf32> in !stream.resource<external>{%c36}
  %5 = stream.async.transfer %4 : !stream.resource<external>{%c36} -> !stream.resource<*>{%c36}
  %6 = stream.async.dispatch @matmul_static_dispatch_0::@matmul_static_dispatch_0_matmul_3x3x5[%c3, %c3, %c1](%1[%c0 to %c60 for %c60], %3[%c0 to %c60 for %c60], %5[%c0 to %c36 for %c36]) : (!stream.resource<*>{%c60}, !stream.resource<*>{%c60}, !stream.resource<*>{%c36}) -> %5{%c36}
  %7 = stream.async.transfer %6 : !stream.resource<*>{%c36} -> !stream.resource<external>{%c36}
  %8 = stream.tensor.export %7 : tensor<3x3xf32> in !stream.resource<external>{%c36} -> !hal.buffer_view
  return %8 : !hal.buffer_view
}

// -----// IR Dump After EmplaceAllocations (iree-stream-emplace-allocations) //----- //
func.func @matmul_static(%arg0: !hal.buffer_view, %arg1: !hal.buffer_view, %arg2: !hal.buffer_view) -> !hal.buffer_view attributes {iree.abi.stub} {
  %c60 = arith.constant 60 : index
  %c36 = arith.constant 36 : index
  %c0 = arith.constant 0 : index
  %c3 = arith.constant 3 : index
  %c1 = arith.constant 1 : index
  %c553648160_i32 = arith.constant 553648160 : i32
  %c1_i32 = arith.constant 1 : i32
  %c5 = arith.constant 5 : index
  hal.buffer_view.assert<%arg0 : !hal.buffer_view> message("tensor") shape([%c3, %c5]) type(%c553648160_i32) encoding(%c1_i32)
  %0 = stream.tensor.import %arg0 : !hal.buffer_view -> tensor<3x5xf32> in !stream.resource<external>{%c60}
  %1 = stream.async.transfer %0 : !stream.resource<external>{%c60} -> !stream.resource<*>{%c60}
  hal.buffer_view.assert<%arg1 : !hal.buffer_view> message("tensor") shape([%c5, %c3]) type(%c553648160_i32) encoding(%c1_i32)
  %2 = stream.tensor.import %arg1 : !hal.buffer_view -> tensor<5x3xf32> in !stream.resource<external>{%c60}
  %3 = stream.async.transfer %2 : !stream.resource<external>{%c60} -> !stream.resource<*>{%c60}
  hal.buffer_view.assert<%arg2 : !hal.buffer_view> message("tensor") shape([%c3, %c3]) type(%c553648160_i32) encoding(%c1_i32)
  %4 = stream.tensor.import %arg2 : !hal.buffer_view -> tensor<3x3xf32> in !stream.resource<external>{%c36}
  %5 = stream.async.transfer %4 : !stream.resource<external>{%c36} -> !stream.resource<*>{%c36}
  %6 = stream.async.dispatch @matmul_static_dispatch_0::@matmul_static_dispatch_0_matmul_3x3x5[%c3, %c3, %c1](%1[%c0 to %c60 for %c60], %3[%c0 to %c60 for %c60], %5[%c0 to %c36 for %c36]) : (!stream.resource<*>{%c60}, !stream.resource<*>{%c60}, !stream.resource<*>{%c36}) -> %5{%c36}
  %7 = stream.async.transfer %6 : !stream.resource<*>{%c36} -> !stream.resource<external>{%c36}
  %8 = stream.tensor.export %7 : tensor<3x3xf32> in !stream.resource<external>{%c36} -> !hal.buffer_view
  return %8 : !hal.buffer_view
}

// -----// IR Dump After RefineUsage (iree-stream-refine-usage) //----- //
module {
  stream.executable private @matmul_static_dispatch_0 {
    stream.executable.export public @matmul_static_dispatch_0_matmul_3x3x5 workgroups(%arg0: index, %arg1: index, %arg2: index) -> (index, index, index) {
      %x, %y, %z = flow.dispatch.workgroup_count_from_dag_root %arg0, %arg1, %arg2
      stream.return %x, %y, %z : index, index, index
    }
    builtin.module {
      func.func @matmul_static_dispatch_0_matmul_3x3x5(%arg0: !stream.binding, %arg1: !stream.binding, %arg2: !stream.binding) {
        %c0 = arith.constant 0 : index
        %0 = stream.binding.subspan %arg0[%c0] : !stream.binding -> !flow.dispatch.tensor<readonly:tensor<3x5xf32>>
        %1 = stream.binding.subspan %arg1[%c0] : !stream.binding -> !flow.dispatch.tensor<readonly:tensor<5x3xf32>>
        %2 = stream.binding.subspan %arg2[%c0] : !stream.binding -> !flow.dispatch.tensor<readwrite:tensor<3x3xf32>>
        %3 = flow.dispatch.tensor.load %0, offsets = [0, 0], sizes = [3, 5], strides = [1, 1] : !flow.dispatch.tensor<readonly:tensor<3x5xf32>> -> tensor<3x5xf32>
        %4 = flow.dispatch.tensor.load %1, offsets = [0, 0], sizes = [5, 3], strides = [1, 1] : !flow.dispatch.tensor<readonly:tensor<5x3xf32>> -> tensor<5x3xf32>
        %5 = flow.dispatch.tensor.load %2, offsets = [0, 0], sizes = [3, 3], strides = [1, 1] : !flow.dispatch.tensor<readwrite:tensor<3x3xf32>> -> tensor<3x3xf32>
        %6 = linalg.matmul ins(%3, %4 : tensor<3x5xf32>, tensor<5x3xf32>) outs(%5 : tensor<3x3xf32>) -> tensor<3x3xf32>
        flow.dispatch.tensor.store %6, %2, offsets = [0, 0], sizes = [3, 3], strides = [1, 1] : tensor<3x3xf32> -> !flow.dispatch.tensor<readwrite:tensor<3x3xf32>>
        return
      }
    }
  }
  func.func @matmul_static(%arg0: !hal.buffer_view, %arg1: !hal.buffer_view, %arg2: !hal.buffer_view) -> !hal.buffer_view attributes {iree.abi.stub} {
    %c60 = arith.constant 60 : index
    %c36 = arith.constant 36 : index
    %c0 = arith.constant 0 : index
    %c3 = arith.constant 3 : index
    %c1 = arith.constant 1 : index
    %c553648160_i32 = arith.constant 553648160 : i32
    %c1_i32 = arith.constant 1 : i32
    %c5 = arith.constant 5 : index
    hal.buffer_view.assert<%arg0 : !hal.buffer_view> message("tensor") shape([%c3, %c5]) type(%c553648160_i32) encoding(%c1_i32)
    %0 = stream.tensor.import %arg0 : !hal.buffer_view -> tensor<3x5xf32> in !stream.resource<external>{%c60}
    hal.buffer_view.assert<%arg1 : !hal.buffer_view> message("tensor") shape([%c5, %c3]) type(%c553648160_i32) encoding(%c1_i32)
    %1 = stream.tensor.import %arg1 : !hal.buffer_view -> tensor<5x3xf32> in !stream.resource<external>{%c60}
    hal.buffer_view.assert<%arg2 : !hal.buffer_view> message("tensor") shape([%c3, %c3]) type(%c553648160_i32) encoding(%c1_i32)
    %2 = stream.tensor.import %arg2 : !hal.buffer_view -> tensor<3x3xf32> in !stream.resource<external>{%c36}
    %3 = stream.async.dispatch @matmul_static_dispatch_0::@matmul_static_dispatch_0_matmul_3x3x5[%c3, %c3, %c1](%0[%c0 to %c60 for %c60], %1[%c0 to %c60 for %c60], %2[%c0 to %c36 for %c36]) : (!stream.resource<external>{%c60}, !stream.resource<external>{%c60}, !stream.resource<external>{%c36}) -> %2{%c36}
    %4 = stream.tensor.export %3 : tensor<3x3xf32> in !stream.resource<external>{%c36} -> !hal.buffer_view
    return %4 : !hal.buffer_view
  }
}


// -----// IR Dump After Canonicalizer (canonicalize) //----- //
func.func @matmul_static(%arg0: !hal.buffer_view, %arg1: !hal.buffer_view, %arg2: !hal.buffer_view) -> !hal.buffer_view attributes {iree.abi.stub} {
  %c60 = arith.constant 60 : index
  %c36 = arith.constant 36 : index
  %c0 = arith.constant 0 : index
  %c3 = arith.constant 3 : index
  %c1 = arith.constant 1 : index
  %c553648160_i32 = arith.constant 553648160 : i32
  %c1_i32 = arith.constant 1 : i32
  %c5 = arith.constant 5 : index
  hal.buffer_view.assert<%arg0 : !hal.buffer_view> message("tensor") shape([%c3, %c5]) type(%c553648160_i32) encoding(%c1_i32)
  %0 = stream.tensor.import %arg0 : !hal.buffer_view -> tensor<3x5xf32> in !stream.resource<external>{%c60}
  hal.buffer_view.assert<%arg1 : !hal.buffer_view> message("tensor") shape([%c5, %c3]) type(%c553648160_i32) encoding(%c1_i32)
  %1 = stream.tensor.import %arg1 : !hal.buffer_view -> tensor<5x3xf32> in !stream.resource<external>{%c60}
  hal.buffer_view.assert<%arg2 : !hal.buffer_view> message("tensor") shape([%c3, %c3]) type(%c553648160_i32) encoding(%c1_i32)
  %2 = stream.tensor.import %arg2 : !hal.buffer_view -> tensor<3x3xf32> in !stream.resource<external>{%c36}
  %3 = stream.async.dispatch @matmul_static_dispatch_0::@matmul_static_dispatch_0_matmul_3x3x5[%c3, %c3, %c1](%0[%c0 to %c60 for %c60], %1[%c0 to %c60 for %c60], %2[%c0 to %c36 for %c36]) : (!stream.resource<external>{%c60}, !stream.resource<external>{%c60}, !stream.resource<external>{%c36}) -> %2{%c36}
  %4 = stream.tensor.export %3 : tensor<3x3xf32> in !stream.resource<external>{%c36} -> !hal.buffer_view
  return %4 : !hal.buffer_view
}

// -----// IR Dump After CSE (cse) //----- //
func.func @matmul_static(%arg0: !hal.buffer_view, %arg1: !hal.buffer_view, %arg2: !hal.buffer_view) -> !hal.buffer_view attributes {iree.abi.stub} {
  %c60 = arith.constant 60 : index
  %c36 = arith.constant 36 : index
  %c0 = arith.constant 0 : index
  %c3 = arith.constant 3 : index
  %c1 = arith.constant 1 : index
  %c553648160_i32 = arith.constant 553648160 : i32
  %c1_i32 = arith.constant 1 : i32
  %c5 = arith.constant 5 : index
  hal.buffer_view.assert<%arg0 : !hal.buffer_view> message("tensor") shape([%c3, %c5]) type(%c553648160_i32) encoding(%c1_i32)
  %0 = stream.tensor.import %arg0 : !hal.buffer_view -> tensor<3x5xf32> in !stream.resource<external>{%c60}
  hal.buffer_view.assert<%arg1 : !hal.buffer_view> message("tensor") shape([%c5, %c3]) type(%c553648160_i32) encoding(%c1_i32)
  %1 = stream.tensor.import %arg1 : !hal.buffer_view -> tensor<5x3xf32> in !stream.resource<external>{%c60}
  hal.buffer_view.assert<%arg2 : !hal.buffer_view> message("tensor") shape([%c3, %c3]) type(%c553648160_i32) encoding(%c1_i32)
  %2 = stream.tensor.import %arg2 : !hal.buffer_view -> tensor<3x3xf32> in !stream.resource<external>{%c36}
  %3 = stream.async.dispatch @matmul_static_dispatch_0::@matmul_static_dispatch_0_matmul_3x3x5[%c3, %c3, %c1](%0[%c0 to %c60 for %c60], %1[%c0 to %c60 for %c60], %2[%c0 to %c36 for %c36]) : (!stream.resource<external>{%c60}, !stream.resource<external>{%c60}, !stream.resource<external>{%c36}) -> %2{%c36}
  %4 = stream.tensor.export %3 : tensor<3x3xf32> in !stream.resource<external>{%c36} -> !hal.buffer_view
  return %4 : !hal.buffer_view
}

// -----// IR Dump After SimplifyGlobalAccesses (iree-util-simplify-global-accesses) //----- //
func.func @matmul_static(%arg0: !hal.buffer_view, %arg1: !hal.buffer_view, %arg2: !hal.buffer_view) -> !hal.buffer_view attributes {iree.abi.stub} {
  %c60 = arith.constant 60 : index
  %c36 = arith.constant 36 : index
  %c0 = arith.constant 0 : index
  %c3 = arith.constant 3 : index
  %c1 = arith.constant 1 : index
  %c553648160_i32 = arith.constant 553648160 : i32
  %c1_i32 = arith.constant 1 : i32
  %c5 = arith.constant 5 : index
  hal.buffer_view.assert<%arg0 : !hal.buffer_view> message("tensor") shape([%c3, %c5]) type(%c553648160_i32) encoding(%c1_i32)
  %0 = stream.tensor.import %arg0 : !hal.buffer_view -> tensor<3x5xf32> in !stream.resource<external>{%c60}
  hal.buffer_view.assert<%arg1 : !hal.buffer_view> message("tensor") shape([%c5, %c3]) type(%c553648160_i32) encoding(%c1_i32)
  %1 = stream.tensor.import %arg1 : !hal.buffer_view -> tensor<5x3xf32> in !stream.resource<external>{%c60}
  hal.buffer_view.assert<%arg2 : !hal.buffer_view> message("tensor") shape([%c3, %c3]) type(%c553648160_i32) encoding(%c1_i32)
  %2 = stream.tensor.import %arg2 : !hal.buffer_view -> tensor<3x3xf32> in !stream.resource<external>{%c36}
  %3 = stream.async.dispatch @matmul_static_dispatch_0::@matmul_static_dispatch_0_matmul_3x3x5[%c3, %c3, %c1](%0[%c0 to %c60 for %c60], %1[%c0 to %c60 for %c60], %2[%c0 to %c36 for %c36]) : (!stream.resource<external>{%c60}, !stream.resource<external>{%c60}, !stream.resource<external>{%c36}) -> %2{%c36}
  %4 = stream.tensor.export %3 : tensor<3x3xf32> in !stream.resource<external>{%c36} -> !hal.buffer_view
  return %4 : !hal.buffer_view
}

// -----// IR Dump After ApplyPatterns (iree-util-apply-patterns) //----- //
module {
  stream.executable private @matmul_static_dispatch_0 {
    stream.executable.export public @matmul_static_dispatch_0_matmul_3x3x5 workgroups(%arg0: index, %arg1: index, %arg2: index) -> (index, index, index) {
      %x, %y, %z = flow.dispatch.workgroup_count_from_dag_root %arg0, %arg1, %arg2
      stream.return %x, %y, %z : index, index, index
    }
    builtin.module {
      func.func @matmul_static_dispatch_0_matmul_3x3x5(%arg0: !stream.binding, %arg1: !stream.binding, %arg2: !stream.binding) {
        %c0 = arith.constant 0 : index
        %0 = stream.binding.subspan %arg0[%c0] : !stream.binding -> !flow.dispatch.tensor<readonly:tensor<3x5xf32>>
        %1 = stream.binding.subspan %arg1[%c0] : !stream.binding -> !flow.dispatch.tensor<readonly:tensor<5x3xf32>>
        %2 = stream.binding.subspan %arg2[%c0] : !stream.binding -> !flow.dispatch.tensor<readwrite:tensor<3x3xf32>>
        %3 = flow.dispatch.tensor.load %0, offsets = [0, 0], sizes = [3, 5], strides = [1, 1] : !flow.dispatch.tensor<readonly:tensor<3x5xf32>> -> tensor<3x5xf32>
        %4 = flow.dispatch.tensor.load %1, offsets = [0, 0], sizes = [5, 3], strides = [1, 1] : !flow.dispatch.tensor<readonly:tensor<5x3xf32>> -> tensor<5x3xf32>
        %5 = flow.dispatch.tensor.load %2, offsets = [0, 0], sizes = [3, 3], strides = [1, 1] : !flow.dispatch.tensor<readwrite:tensor<3x3xf32>> -> tensor<3x3xf32>
        %6 = linalg.matmul ins(%3, %4 : tensor<3x5xf32>, tensor<5x3xf32>) outs(%5 : tensor<3x3xf32>) -> tensor<3x3xf32>
        flow.dispatch.tensor.store %6, %2, offsets = [0, 0], sizes = [3, 3], strides = [1, 1] : tensor<3x3xf32> -> !flow.dispatch.tensor<readwrite:tensor<3x3xf32>>
        return
      }
    }
  }
  func.func @matmul_static(%arg0: !hal.buffer_view, %arg1: !hal.buffer_view, %arg2: !hal.buffer_view) -> !hal.buffer_view attributes {iree.abi.stub} {
    %c60 = arith.constant 60 : index
    %c36 = arith.constant 36 : index
    %c0 = arith.constant 0 : index
    %c3 = arith.constant 3 : index
    %c1 = arith.constant 1 : index
    %c553648160_i32 = arith.constant 553648160 : i32
    %c1_i32 = arith.constant 1 : i32
    %c5 = arith.constant 5 : index
    hal.buffer_view.assert<%arg0 : !hal.buffer_view> message("tensor") shape([%c3, %c5]) type(%c553648160_i32) encoding(%c1_i32)
    %0 = stream.tensor.import %arg0 : !hal.buffer_view -> tensor<3x5xf32> in !stream.resource<external>{%c60}
    hal.buffer_view.assert<%arg1 : !hal.buffer_view> message("tensor") shape([%c5, %c3]) type(%c553648160_i32) encoding(%c1_i32)
    %1 = stream.tensor.import %arg1 : !hal.buffer_view -> tensor<5x3xf32> in !stream.resource<external>{%c60}
    hal.buffer_view.assert<%arg2 : !hal.buffer_view> message("tensor") shape([%c3, %c3]) type(%c553648160_i32) encoding(%c1_i32)
    %2 = stream.tensor.import %arg2 : !hal.buffer_view -> tensor<3x3xf32> in !stream.resource<external>{%c36}
…
    %ref_10 = vm.call @hal.fence.create(%ref_5, %zero) : (!vm.ref<!hal.device>, i32) -> !vm.ref<!hal.fence>
    vm.call.variadic @hal.device.queue.execute(%ref_5, %c-1, %null, %ref_10, [%ref_9]) : (!vm.ref<!hal.device>, i64, !vm.ref<!hal.fence>, !vm.ref<!hal.fence>, !vm.ref<!hal.command_buffer> ...)
    %0 = vm.call.variadic @hal.fence.await(%c-1_4, [%ref_10]) : (i32, !vm.ref<!hal.fence> ...) -> i32
    vm.cond_br %0, ^bb3, ^bb2
  ^bb2:  // pred: ^bb1
    %ref_11 = vm.call.variadic @hal.buffer_view.create(%ref_8, %zero_2, %c36, %c553648160, %c1, [%c3_1, %c3_1]) {nosideeffects} : (!vm.ref<!hal.buffer>, i64, i64, i32, i32, i64 ...) -> !vm.ref<!hal.buffer_view>
    vm.return %ref_11 : !vm.ref<!hal.buffer_view>
  ^bb3:  // pred: ^bb1
    vm.fail %0, "failed to wait on timepoint"
  ^bb4:  // pred: ^bb0
    vm.fail %c2, "device not supported in the compiled configuration"
  }
  vm.export @matmul_static attributes {iree.abi.stub}
  vm.export @__init
  vm.func private @__init() {
    %null = vm.const.ref.zero : !vm.ref<!hal.executable>
    %null_0 = vm.const.ref.zero : !vm.buffer
    %c2 = vm.const.i32 2
    %c7 = vm.const.i32 7
    %zero = vm.const.i32.zero
    %c1 = vm.const.i32 1
    %ref = vm.call @hal.ex.shared_device() {nosideeffects} : () -> !vm.ref<!hal.device>
    %_utf8_hal_executable_format_EAB228F999C2D3A1 = vm.const.ref.rodata @_utf8_hal_executable_format_EAB228F999C2D3A1 : !vm.buffer
    %_utf8_cuda_nvptx_fb_B15B42B96FDBACC = vm.const.ref.rodata @_utf8_cuda_nvptx_fb_B15B42B96FDBACC : !vm.buffer
    %0:2 = vm.call @hal.device.query.i64(%ref, %_utf8_hal_executable_format_EAB228F999C2D3A1, %_utf8_cuda_nvptx_fb_B15B42B96FDBACC) {nosideeffects} : (!vm.ref<!hal.device>, !vm.buffer, !vm.buffer) -> (i32, i64)
    %1 = vm.trunc.i64.i32 %0#1 : i64 -> i32
    %2 = vm.and.i32 %1, %c1 : i32
    %3 = vm.select.i32 %0#0, %2, %zero : i32
    %ref_1 = vm.call.variadic @hal.descriptor_set_layout.create(%ref, %zero, [(%zero, %c7, %c1), (%c1, %c7, %c1), (%c2, %c7, %zero)]) {nosideeffects} : (!vm.ref<!hal.device>, i32, tuple<i32, i32, i32> ...) -> !vm.ref<!hal.descriptor_set_layout>
    %ref_2 = vm.call.variadic @hal.pipeline_layout.create(%ref, %zero, [%ref_1]) {nosideeffects} : (!vm.ref<!hal.device>, i32, !vm.ref<!hal.descriptor_set_layout> ...) -> !vm.ref<!hal.pipeline_layout>
    vm.global.store.i32 %3, @_device_query_0 : i32
    vm.global.store.ref %ref_2, @_pipeline_layout_0 : !vm.ref<!hal.pipeline_layout>
    vm.cond_br %3, ^bb1, ^bb2
  ^bb1:  // pred: ^bb0
    %_pipeline_layout_0 = vm.global.load.ref @_pipeline_layout_0 : !vm.ref<!hal.pipeline_layout>
    %matmul_static_dispatch_0_cuda_nvptx_fb = vm.const.ref.rodata @matmul_static_dispatch_0_cuda_nvptx_fb : !vm.buffer
    %ref_3 = vm.call.variadic @hal.executable.create(%ref, %_utf8_cuda_nvptx_fb_B15B42B96FDBACC, %matmul_static_dispatch_0_cuda_nvptx_fb, %null_0, [%_pipeline_layout_0]) {nosideeffects} : (!vm.ref<!hal.device>, !vm.buffer, !vm.buffer, !vm.buffer, !vm.ref<!hal.pipeline_layout> ...) -> !vm.ref<!hal.executable>
    vm.br ^bb3(%ref_3 : !vm.ref<!hal.executable>)
  ^bb2:  // pred: ^bb0
    vm.br ^bb3(%null : !vm.ref<!hal.executable>)
  ^bb3(%4: !vm.ref<!hal.executable>):  // 2 preds: ^bb1, ^bb2
    vm.global.store.ref %4, @_executable_matmul_static_dispatch_0 : !vm.ref<!hal.executable>
    vm.return
  }
}

// -----// IR Dump After CSE (cse) //----- //
vm.module public @module {
  vm.global.i32 private mutable @_device_query_0 : i32
  vm.global.ref private mutable @_pipeline_layout_0 : !vm.ref<!hal.pipeline_layout>
  vm.global.ref private mutable @_executable_matmul_static_dispatch_0 : !vm.ref<!hal.executable>
  vm.rodata private @matmul_static_dispatch_0_cuda_nvptx_fb {alignment = 16 : i64, mime_type = "application/x-flatbuffers"} dense<"…"> : vector<1944xi8>
  vm.rodata private @_utf8_hal_executable_format_EAB228F999C2D3A1 {alignment = 1 : i64} "hal.executable.format"
  vm.rodata private @_utf8_cuda_nvptx_fb_B15B42B96FDBACC {alignment = 1 : i64} "cuda-nvptx-fb"
  vm.import @hal.ex.shared_device() -> !vm.ref<!hal.device> attributes {nosideeffects, sym_visibility = "private"}
  vm.import @hal.buffer.assert(%buffer : !vm.ref<!hal.buffer>, %message : !vm.buffer, %allocator : !vm.ref<!hal.allocator>, %minimum_length : i64, %memory_types : i32, %buffer_usage : i32) attributes {sym_visibility = "private"}
  vm.import @hal.buffer_view.create(%buffer : !vm.ref<!hal.buffer>, %source_offset : i64, %source_length : i64, %element_type : i32, %encoding_type : i32, %shape : i64 ...) -> !vm.ref<!hal.buffer_view> attributes {nosideeffects, sym_visibility = "private"}
  vm.import @hal.buffer_view.assert(%buffer_view : !vm.ref<!hal.buffer_view>, %message : !vm.buffer, %element_type : i32, %encoding_type : i32, %shape : i64 ...) attributes {sym_visibility = "private"}
  vm.import @hal.buffer_view.buffer(%buffer_view : !vm.ref<!hal.buffer_view>) -> !vm.ref<!hal.buffer> attributes {nosideeffects, sym_visibility = "private"}
  vm.import @hal.command_buffer.create(%device : !vm.ref<!hal.device>, %modes : i32, %command_categories : i32, %binding_capacity : i32) -> !vm.ref<!hal.command_buffer> attributes {sym_visibility = "private"}
  vm.import @hal.command_buffer.finalize(%command_buffer : !vm.ref<!hal.command_buffer>) attributes {sym_visibility = "private"}
  vm.import @hal.command_buffer.execution_barrier(%command_buffer : !vm.ref<!hal.command_buffer>, %source_stage_mask : i32, %target_stage_mask : i32, %flags : i32) attributes {sym_visibility = "private"}
  vm.import @hal.command_buffer.push_descriptor_set(%command_buffer : !vm.ref<!hal.command_buffer>, %pipeline_layout : !vm.ref<!hal.pipeline_layout>, %set : i32, %bindings : tuple<i32, i32, !vm.ref<!hal.buffer>, i64, i64> ...) attributes {sym_visibility = "private"}
  vm.import @hal.command_buffer.dispatch(%command_buffer : !vm.ref<!hal.command_buffer>, %executable : !vm.ref<!hal.executable>, %entry_point : i32, %workgroup_x : i32, %workgroup_y : i32, %workgroup_z : i32) attributes {sym_visibility = "private"}
  vm.import @hal.descriptor_set_layout.create(%device : !vm.ref<!hal.device>, %flags : i32, %bindings : tuple<i32, i32, i32> ...) -> !vm.ref<!hal.descriptor_set_layout> attributes {nosideeffects, sym_visibility = "private"}
  vm.import @hal.device.allocator(%device : !vm.ref<!hal.device>) -> !vm.ref<!hal.allocator> attributes {nosideeffects, sym_visibility = "private"}
  vm.import @hal.device.query.i64(%device : !vm.ref<!hal.device>, %category : !vm.buffer, %key : !vm.buffer) -> (i32, i64) attributes {nosideeffects, sym_visibility = "private"}
  vm.import @hal.device.queue.execute(%device : !vm.ref<!hal.device>, %queue_affinity : i64, %wait_fence : !vm.ref<!hal.fence>, %signal_fence : !vm.ref<!hal.fence>, %command_buffers : !vm.ref<!hal.command_buffer> ...) attributes {sym_visibility = "private"}
  vm.import @hal.executable.create(%device : !vm.ref<!hal.device>, %executable_format : !vm.buffer, %executable_data : !vm.buffer, %constants : !vm.buffer, %pipeline_layouts : !vm.ref<!hal.pipeline_layout> ...) -> !vm.ref<!hal.executable> attributes {nosideeffects, sym_visibility = "private"}
  vm.import @hal.fence.create(%device : !vm.ref<!hal.device>, %flags : i32) -> !vm.ref<!hal.fence> attributes {sym_visibility = "private"}
  vm.import @hal.fence.await(%timeout_millis : i32, %fences : !vm.ref<!hal.fence> ...) -> i32 attributes {sym_visibility = "private", vm.yield}
  vm.import @hal.pipeline_layout.create(%device : !vm.ref<!hal.device>, %push_constants : i32, %set_layouts : !vm.ref<!hal.descriptor_set_layout> ...) -> !vm.ref<!hal.pipeline_layout> attributes {nosideeffects, sym_visibility = "private"}
  vm.rodata private @_utf8_tensor_3C6209B4FD120BDC {alignment = 1 : i64} "tensor"
  vm.func private @matmul_static(%arg0: !vm.ref<!hal.buffer_view>, %arg1: !vm.ref<!hal.buffer_view>, %arg2: !vm.ref<!hal.buffer_view>) -> !vm.ref<!hal.buffer_view> {
    %c2 = vm.const.i32 2
    %null = vm.const.ref.zero : !vm.ref<!hal.fence>
    %c13 = vm.const.i32 13
    %c28 = vm.const.i32 28
    %zero = vm.const.i32.zero
    %c3 = vm.const.i32 3
    %c17 = vm.const.i32 17
    %c3075 = vm.const.i32 3075
    %c16 = vm.const.i32 16
    %c5 = vm.const.i64 5
    %c1 = vm.const.i32 1
    %c553648160 = vm.const.i32 553648160
    %c1_0 = vm.const.i64 1
    %c3_1 = vm.const.i64 3
    %c36 = vm.const.i64 36
    %c60 = vm.const.i64 60
    %zero_2 = vm.const.i64.zero
    %c-1 = vm.const.i64 -1
    %c2_3 = vm.const.i64 2
    %c-1_4 = vm.const.i32 -1
    %_device_query_0 = vm.global.load.i32 @_device_query_0 : i32
    %_pipeline_layout_0 = vm.global.load.ref @_pipeline_layout_0 : !vm.ref<!hal.pipeline_layout>
    %_executable_matmul_static_dispatch_0 = vm.global.load.ref @_executable_matmul_static_dispatch_0 : !vm.ref<!hal.executable>
    %_utf8_tensor_3C6209B4FD120BDC = vm.const.ref.rodata @_utf8_tensor_3C6209B4FD120BDC : !vm.buffer
    vm.call.variadic @hal.buffer_view.assert(%arg0, %_utf8_tensor_3C6209B4FD120BDC, %c553648160, %c1, [%c3_1, %c5]) : (!vm.ref<!hal.buffer_view>, !vm.buffer, i32, i32, i64 ...)
    %ref = vm.call @hal.buffer_view.buffer(%arg0) {nosideeffects} : (!vm.ref<!hal.buffer_view>) -> !vm.ref<!hal.buffer>
    %ref_5 = vm.call @hal.ex.shared_device() {nosideeffects} : () -> !vm.ref<!hal.device>
    %ref_6 = vm.call @hal.device.allocator(%ref_5) {nosideeffects} : (!vm.ref<!hal.device>) -> !vm.ref<!hal.allocator>
    vm.call @hal.buffer.assert(%ref, %_utf8_tensor_3C6209B4FD120BDC, %ref_6, %c60, %c16, %c3075) : (!vm.ref<!hal.buffer>, !vm.buffer, !vm.ref<!hal.allocator>, i64, i32, i32) -> ()
    vm.call.variadic @hal.buffer_view.assert(%arg1, %_utf8_tensor_3C6209B4FD120BDC, %c553648160, %c1, [%c5, %c3_1]) : (!vm.ref<!hal.buffer_view>, !vm.buffer, i32, i32, i64 ...)
    %ref_7 = vm.call @hal.buffer_view.buffer(%arg1) {nosideeffects} : (!vm.ref<!hal.buffer_view>) -> !vm.ref<!hal.buffer>
    vm.call @hal.buffer.assert(%ref_7, %_utf8_tensor_3C6209B4FD120BDC, %ref_6, %c60, %c16, %c3075) : (!vm.ref<!hal.buffer>, !vm.buffer, !vm.ref<!hal.allocator>, i64, i32, i32) -> ()
    vm.call.variadic @hal.buffer_view.assert(%arg2, %_utf8_tensor_3C6209B4FD120BDC, %c553648160, %c1, [%c3_1, %c3_1]) : (!vm.ref<!hal.buffer_view>, !vm.buffer, i32, i32, i64 ...)
    %ref_8 = vm.call @hal.buffer_view.buffer(%arg2) {nosideeffects} : (!vm.ref<!hal.buffer_view>) -> !vm.ref<!hal.buffer>
    vm.call @hal.buffer.assert(%ref_8, %_utf8_tensor_3C6209B4FD120BDC, %ref_6, %c36, %c16, %c3075) : (!vm.ref<!hal.buffer>, !vm.buffer, !vm.ref<!hal.allocator>, i64, i32, i32) -> ()
    %ref_9 = vm.call @hal.command_buffer.create(%ref_5, %c17, %c3, %zero) : (!vm.ref<!hal.device>, i32, i32, i32) -> !vm.ref<!hal.command_buffer>
    vm.cond_br %_device_query_0, ^bb1, ^bb4
  ^bb1:  // pred: ^bb0
    vm.call.variadic @hal.command_buffer.push_descriptor_set(%ref_9, %_pipeline_layout_0, %zero_2, [(%zero_2, %zero, %ref, %zero_2, %c60), (%c1_0, %zero, %ref_7, %zero_2, %c60), (%c2_3, %zero, %ref_8, %zero_2, %c36)]) : (!vm.ref<!hal.command_buffer>, !vm.ref<!hal.pipeline_layout>, i32, tuple<i32, i32, !vm.ref<!hal.buffer>, i64, i64> ...)
    vm.call @hal.command_buffer.dispatch(%ref_9, %_executable_matmul_static_dispatch_0, %zero, %c1, %c1, %c1) : (!vm.ref<!hal.command_buffer>, !vm.ref<!hal.executable>, i32, i32, i32, i32) -> ()
    vm.call @hal.command_buffer.execution_barrier(%ref_9, %c28, %c13, %zero) : (!vm.ref<!hal.command_buffer>, i32, i32, i32) -> ()
    vm.call @hal.command_buffer.finalize(%ref_9) : (!vm.ref<!hal.command_buffer>) -> ()
    %ref_10 = vm.call @hal.fence.create(%ref_5, %zero) : (!vm.ref<!hal.device>, i32) -> !vm.ref<!hal.fence>
    vm.call.variadic @hal.device.queue.execute(%ref_5, %c-1, %null, %ref_10, [%ref_9]) : (!vm.ref<!hal.device>, i64, !vm.ref<!hal.fence>, !vm.ref<!hal.fence>, !vm.ref<!hal.command_buffer> ...)
    %0 = vm.call.variadic @hal.fence.await(%c-1_4, [%ref_10]) : (i32, !vm.ref<!hal.fence> ...) -> i32
    vm.cond_br %0, ^bb3, ^bb2
  ^bb2:  // pred: ^bb1
    %ref_11 = vm.call.variadic @hal.buffer_view.create(%ref_8, %zero_2, %c36, %c553648160, %c1, [%c3_1, %c3_1]) {nosideeffects} : (!vm.ref<!hal.buffer>, i64, i64, i32, i32, i64 ...) -> !vm.ref<!hal.buffer_view>
    vm.return %ref_11 : !vm.ref<!hal.buffer_view>
  ^bb3:  // pred: ^bb1
    vm.fail %0, "failed to wait on timepoint"
  ^bb4:  // pred: ^bb0
    vm.fail %c2, "device not supported in the compiled configuration"
  }
  vm.export @matmul_static attributes {iree.abi.stub}
  vm.export @__init
  vm.func private @__init() {
    %null = vm.const.ref.zero : !vm.ref<!hal.executable>
    %null_0 = vm.const.ref.zero : !vm.buffer
    %c2 = vm.const.i32 2
    %c7 = vm.const.i32 7
    %zero = vm.const.i32.zero
    %c1 = vm.const.i32 1
    %ref = vm.call @hal.ex.shared_device() {nosideeffects} : () -> !vm.ref<!hal.device>
    %_utf8_hal_executable_format_EAB228F999C2D3A1 = vm.const.ref.rodata @_utf8_hal_executable_format_EAB228F999C2D3A1 : !vm.buffer
    %_utf8_cuda_nvptx_fb_B15B42B96FDBACC = vm.const.ref.rodata @_utf8_cuda_nvptx_fb_B15B42B96FDBACC : !vm.buffer
    %0:2 = vm.call @hal.device.query.i64(%ref, %_utf8_hal_executable_format_EAB228F999C2D3A1, %_utf8_cuda_nvptx_fb_B15B42B96FDBACC) {nosideeffects} : (!vm.ref<!hal.device>, !vm.buffer, !vm.buffer) -> (i32, i64)
    %1 = vm.trunc.i64.i32 %0#1 : i64 -> i32
    %2 = vm.and.i32 %1, %c1 : i32
    %3 = vm.select.i32 %0#0, %2, %zero : i32
    %ref_1 = vm.call.variadic @hal.descriptor_set_layout.create(%ref, %zero, [(%zero, %c7, %c1), (%c1, %c7, %c1), (%c2, %c7, %zero)]) {nosideeffects} : (!vm.ref<!hal.device>, i32, tuple<i32, i32, i32> ...) -> !vm.ref<!hal.descriptor_set_layout>
    %ref_2 = vm.call.variadic @hal.pipeline_layout.create(%ref, %zero, [%ref_1]) {nosideeffects} : (!vm.ref<!hal.device>, i32, !vm.ref<!hal.descriptor_set_layout> ...) -> !vm.ref<!hal.pipeline_layout>
    vm.global.store.i32 %3, @_device_query_0 : i32
    vm.global.store.ref %ref_2, @_pipeline_layout_0 : !vm.ref<!hal.pipeline_layout>
    vm.cond_br %3, ^bb1, ^bb2
  ^bb1:  // pred: ^bb0
    %_pipeline_layout_0 = vm.global.load.ref @_pipeline_layout_0 : !vm.ref<!hal.pipeline_layout>
    %matmul_static_dispatch_0_cuda_nvptx_fb = vm.const.ref.rodata @matmul_static_dispatch_0_cuda_nvptx_fb : !vm.buffer
    %ref_3 = vm.call.variadic @hal.executable.create(%ref, %_utf8_cuda_nvptx_fb_B15B42B96FDBACC, %matmul_static_dispatch_0_cuda_nvptx_fb, %null_0, [%_pipeline_layout_0]) {nosideeffects} : (!vm.ref<!hal.device>, !vm.buffer, !vm.buffer, !vm.buffer, !vm.ref<!hal.pipeline_layout> ...) -> !vm.ref<!hal.executable>
    vm.br ^bb3(%ref_3 : !vm.ref<!hal.executable>)
  ^bb2:  // pred: ^bb0
    vm.br ^bb3(%null : !vm.ref<!hal.executable>)
  ^bb3(%4: !vm.ref<!hal.executable>):  // 2 preds: ^bb1, ^bb2
    vm.global.store.ref %4, @_executable_matmul_static_dispatch_0 : !vm.ref<!hal.executable>
    vm.return
  }
}

// -----// IR Dump After Canonicalizer (canonicalize) //----- //
vm.module public @module {
  vm.global.i32 private mutable @_device_query_0 : i32
  vm.global.ref private mutable @_pipeline_layout_0 : !vm.ref<!hal.pipeline_layout>
  vm.global.ref private mutable @_executable_matmul_static_dispatch_0 : !vm.ref<!hal.executable>
  vm.rodata private @matmul_static_dispatch_0_cuda_nvptx_fb {alignment = 16 : i64, mime_type = "application/x-flatbuffers"} dense<"…"> : vector<1944xi8>
  vm.rodata private @_utf8_hal_executable_format_EAB228F999C2D3A1 {alignment = 1 : i64} "hal.executable.format"
  vm.rodata private @_utf8_cuda_nvptx_fb_B15B42B96FDBACC {alignment = 1 : i64} "cuda-nvptx-fb"
  vm.import @hal.ex.shared_device() -> !vm.ref<!hal.device> attributes {nosideeffects, sym_visibility = "private"}
  vm.import @hal.buffer.assert(%buffer : !vm.ref<!hal.buffer>, %message : !vm.buffer, %allocator : !vm.ref<!hal.allocator>, %minimum_length : i64, %memory_types : i32, %buffer_usage : i32) attributes {sym_visibility = "private"}
  vm.import @hal.buffer_view.create(%buffer : !vm.ref<!hal.buffer>, %source_offset : i64, %source_length : i64, %element_type : i32, %encoding_type : i32, %shape : i64 ...) -> !vm.ref<!hal.buffer_view> attributes {nosideeffects, sym_visibility = "private"}
  vm.import @hal.buffer_view.assert(%buffer_view : !vm.ref<!hal.buffer_view>, %message : !vm.buffer, %element_type : i32, %encoding_type : i32, %shape : i64 ...) attributes {sym_visibility = "private"}
  vm.import @hal.buffer_view.buffer(%buffer_view : !vm.ref<!hal.buffer_view>) -> !vm.ref<!hal.buffer> attributes {nosideeffects, sym_visibility = "private"}
  vm.import @hal.command_buffer.create(%device : !vm.ref<!hal.device>, %modes : i32, %command_categories : i32, %binding_capacity : i32) -> !vm.ref<!hal.command_buffer> attributes {sym_visibility = "private"}
  vm.import @hal.command_buffer.finalize(%command_buffer : !vm.ref<!hal.command_buffer>) attributes {sym_visibility = "private"}
  vm.import @hal.command_buffer.execution_barrier(%command_buffer : !vm.ref<!hal.command_buffer>, %source_stage_mask : i32, %target_stage_mask : i32, %flags : i32) attributes {sym_visibility = "private"}
  vm.import @hal.command_buffer.push_descriptor_set(%command_buffer : !vm.ref<!hal.command_buffer>, %pipeline_layout : !vm.ref<!hal.pipeline_layout>, %set : i32, %bindings : tuple<i32, i32, !vm.ref<!hal.buffer>, i64, i64> ...) attributes {sym_visibility = "private"}
  vm.import @hal.command_buffer.dispatch(%command_buffer : !vm.ref<!hal.command_buffer>, %executable : !vm.ref<!hal.executable>, %entry_point : i32, %workgroup_x : i32, %workgroup_y : i32, %workgroup_z : i32) attributes {sym_visibility = "private"}
  vm.import @hal.descriptor_set_layout.create(%device : !vm.ref<!hal.device>, %flags : i32, %bindings : tuple<i32, i32, i32> ...) -> !vm.ref<!hal.descriptor_set_layout> attributes {nosideeffects, sym_visibility = "private"}
  vm.import @hal.device.allocator(%device : !vm.ref<!hal.device>) -> !vm.ref<!hal.allocator> attributes {nosideeffects, sym_visibility = "private"}
  vm.import @hal.device.query.i64(%device : !vm.ref<!hal.device>, %category : !vm.buffer, %key : !vm.buffer) -> (i32, i64) attributes {nosideeffects, sym_visibility = "private"}
  vm.import @hal.device.queue.execute(%device : !vm.ref<!hal.device>, %queue_affinity : i64, %wait_fence : !vm.ref<!hal.fence>, %signal_fence : !vm.ref<!hal.fence>, %command_buffers : !vm.ref<!hal.command_buffer> ...) attributes {sym_visibility = "private"}
  vm.import @hal.executable.create(%device : !vm.ref<!hal.device>, %executable_format : !vm.buffer, %executable_data : !vm.buffer, %constants : !vm.buffer, %pipeline_layouts : !vm.ref<!hal.pipeline_layout> ...) -> !vm.ref<!hal.executable> attributes {nosideeffects, sym_visibility = "private"}
  vm.import @hal.fence.create(%device : !vm.ref<!hal.device>, %flags : i32) -> !vm.ref<!hal.fence> attributes {sym_visibility = "private"}
  vm.import @hal.fence.await(%timeout_millis : i32, %fences : !vm.ref<!hal.fence> ...) -> i32 attributes {sym_visibility = "private", vm.yield}
  vm.import @hal.pipeline_layout.create(%device : !vm.ref<!hal.device>, %push_constants : i32, %set_layouts : !vm.ref<!hal.descriptor_set_layout> ...) -> !vm.ref<!hal.pipeline_layout> attributes {nosideeffects, sym_visibility = "private"}
  vm.rodata private @_utf8_tensor_3C6209B4FD120BDC {alignment = 1 : i64} "tensor"
  vm.func private @matmul_static(%arg0: !vm.ref<!hal.buffer_view>, %arg1: !vm.ref<!hal.buffer_view>, %arg2: !vm.ref<!hal.buffer_view>) -> !vm.ref<!hal.buffer_view> {
    %c2 = vm.const.i32 2
    %null = vm.const.ref.zero : !vm.ref<!hal.fence>
    %c13 = vm.const.i32 13
    %c28 = vm.const.i32 28
    %zero = vm.const.i32.zero
    %c3 = vm.const.i32 3
    %c17 = vm.const.i32 17
    %c3075 = vm.const.i32 3075
    %c16 = vm.const.i32 16
    %c5 = vm.const.i64 5
    %c1 = vm.const.i32 1
    %c553648160 = vm.const.i32 553648160
    %c1_0 = vm.const.i64 1
    %c3_1 = vm.const.i64 3
    %c36 = vm.const.i64 36
    %c60 = vm.const.i64 60
    %zero_2 = vm.const.i64.zero
    %c-1 = vm.const.i64 -1
    %c2_3 = vm.const.i64 2
    %c-1_4 = vm.const.i32 -1
    %_device_query_0 = vm.global.load.i32 @_device_query_0 : i32
    %_pipeline_layout_0 = vm.global.load.ref @_pipeline_layout_0 : !vm.ref<!hal.pipeline_layout>
    %_executable_matmul_static_dispatch_0 = vm.global.load.ref @_executable_matmul_static_dispatch_0 : !vm.ref<!hal.executable>
    %_utf8_tensor_3C6209B4FD120BDC = vm.const.ref.rodata @_utf8_tensor_3C6209B4FD120BDC : !vm.buffer
    vm.call.variadic @hal.buffer_view.assert(%arg0, %_utf8_tensor_3C6209B4FD120BDC, %c553648160, %c1, [%c3_1, %c5]) : (!vm.ref<!hal.buffer_view>, !vm.buffer, i32, i32, i64 ...)
    %ref = vm.call @hal.buffer_view.buffer(%arg0) {nosideeffects} : (!vm.ref<!hal.buffer_view>) -> !vm.ref<!hal.buffer>
    %ref_5 = vm.call @hal.ex.shared_device() {nosideeffects} : () -> !vm.ref<!hal.device>
    %ref_6 = vm.call @hal.device.allocator(%ref_5) {nosideeffects} : (!vm.ref<!hal.device>) -> !vm.ref<!hal.allocator>
    vm.call @hal.buffer.assert(%ref, %_utf8_tensor_3C6209B4FD120BDC, %ref_6, %c60, %c16, %c3075) : (!vm.ref<!hal.buffer>, !vm.buffer, !vm.ref<!hal.allocator>, i64, i32, i32) -> ()
    vm.call.variadic @hal.buffer_view.assert(%arg1, %_utf8_tensor_3C6209B4FD120BDC, %c553648160, %c1, [%c5, %c3_1]) : (!vm.ref<!hal.buffer_view>, !vm.buffer, i32, i32, i64 ...)
    %ref_7 = vm.call @hal.buffer_view.buffer(%arg1) {nosideeffects} : (!vm.ref<!hal.buffer_view>) -> !vm.ref<!hal.buffer>
    vm.call @hal.buffer.assert(%ref_7, %_utf8_tensor_3C6209B4FD120BDC, %ref_6, %c60, %c16, %c3075) : (!vm.ref<!hal.buffer>, !vm.buffer, !vm.ref<!hal.allocator>, i64, i32, i32) -> ()
    vm.call.variadic @hal.buffer_view.assert(%arg2, %_utf8_tensor_3C6209B4FD120BDC, %c553648160, %c1, [%c3_1, %c3_1]) : (!vm.ref<!hal.buffer_view>, !vm.buffer, i32, i32, i64 ...)
    %ref_8 = vm.call @hal.buffer_view.buffer(%arg2) {nosideeffects} : (!vm.ref<!hal.buffer_view>) -> !vm.ref<!hal.buffer>
    vm.call @hal.buffer.assert(%ref_8, %_utf8_tensor_3C6209B4FD120BDC, %ref_6, %c36, %c16, %c3075) : (!vm.ref<!hal.buffer>, !vm.buffer, !vm.ref<!hal.allocator>, i64, i32, i32) -> ()
    %ref_9 = vm.call @hal.command_buffer.create(%ref_5, %c17, %c3, %zero) : (!vm.ref<!hal.device>, i32, i32, i32) -> !vm.ref<!hal.command_buffer>
    vm.cond_br %_device_query_0, ^bb1, ^bb4
  ^bb1:  // pred: ^bb0
    vm.call.variadic @hal.command_buffer.push_descriptor_set(%ref_9, %_pipeline_layout_0, %zero_2, [(%zero_2, %zero, %ref, %zero_2, %c60), (%c1_0, %zero, %ref_7, %zero_2, %c60), (%c2_3, %zero, %ref_8, %zero_2, %c36)]) : (!vm.ref<!hal.command_buffer>, !vm.ref<!hal.pipeline_layout>, i32, tuple<i32, i32, !vm.ref<!hal.buffer>, i64, i64> ...)
    vm.call @hal.command_buffer.dispatch(%ref_9, %_executable_matmul_static_dispatch_0, %zero, %c1, %c1, %c1) : (!vm.ref<!hal.command_buffer>, !vm.ref<!hal.executable>, i32, i32, i32, i32) -> ()
    vm.call @hal.command_buffer.execution_barrier(%ref_9, %c28, %c13, %zero) : (!vm.ref<!hal.command_buffer>, i32, i32, i32) -> ()
    vm.call @hal.command_buffer.finalize(%ref_9) : (!vm.ref<!hal.command_buffer>) -> ()
    %ref_10 = vm.call @hal.fence.create(%ref_5, %zero) : (!vm.ref<!hal.device>, i32) -> !vm.ref<!hal.fence>
    vm.call.variadic @hal.device.queue.execute(%ref_5, %c-1, %null, %ref_10, [%ref_9]) : (!vm.ref<!hal.device>, i64, !vm.ref<!hal.fence>, !vm.ref<!hal.fence>, !vm.ref<!hal.command_buffer> ...)
    %0 = vm.call.variadic @hal.fence.await(%c-1_4, [%ref_10]) : (i32, !vm.ref<!hal.fence> ...) -> i32
    vm.cond_br %0, ^bb3, ^bb2
  ^bb2:  // pred: ^bb1
    %ref_11 = vm.call.variadic @hal.buffer_view.create(%ref_8, %zero_2, %c36, %c553648160, %c1, [%c3_1, %c3_1]) {nosideeffects} : (!vm.ref<!hal.buffer>, i64, i64, i32, i32, i64 ...) -> !vm.ref<!hal.buffer_view>
    vm.return %ref_11 : !vm.ref<!hal.buffer_view>
  ^bb3:  // pred: ^bb1
    vm.fail %0, "failed to wait on timepoint"
  ^bb4:  // pred: ^bb0
    vm.fail %c2, "device not supported in the compiled configuration"
  }
  vm.export @matmul_static attributes {iree.abi.stub}
  vm.export @__init
  vm.func private @__init() {
    %null = vm.const.ref.zero : !vm.ref<!hal.executable>
    %null_0 = vm.const.ref.zero : !vm.buffer
    %c2 = vm.const.i32 2
    %c7 = vm.const.i32 7
    %zero = vm.const.i32.zero
    %c1 = vm.const.i32 1
    %ref = vm.call @hal.ex.shared_device() {nosideeffects} : () -> !vm.ref<!hal.device>
    %_utf8_hal_executable_format_EAB228F999C2D3A1 = vm.const.ref.rodata @_utf8_hal_executable_format_EAB228F999C2D3A1 : !vm.buffer
    %_utf8_cuda_nvptx_fb_B15B42B96FDBACC = vm.const.ref.rodata @_utf8_cuda_nvptx_fb_B15B42B96FDBACC : !vm.buffer
    %0:2 = vm.call @hal.device.query.i64(%ref, %_utf8_hal_executable_format_EAB228F999C2D3A1, %_utf8_cuda_nvptx_fb_B15B42B96FDBACC) {nosideeffects} : (!vm.ref<!hal.device>, !vm.buffer, !vm.buffer) -> (i32, i64)
    %1 = vm.trunc.i64.i32 %0#1 : i64 -> i32
    %2 = vm.and.i32 %1, %c1 : i32
    %3 = vm.select.i32 %0#0, %2, %zero : i32
    %ref_1 = vm.call.variadic @hal.descriptor_set_layout.create(%ref, %zero, [(%zero, %c7, %c1), (%c1, %c7, %c1), (%c2, %c7, %zero)]) {nosideeffects} : (!vm.ref<!hal.device>, i32, tuple<i32, i32, i32> ...) -> !vm.ref<!hal.descriptor_set_layout>
    %ref_2 = vm.call.variadic @hal.pipeline_layout.create(%ref, %zero, [%ref_1]) {nosideeffects} : (!vm.ref<!hal.device>, i32, !vm.ref<!hal.descriptor_set_layout> ...) -> !vm.ref<!hal.pipeline_layout>
    vm.global.store.i32 %3, @_device_query_0 : i32
    vm.global.store.ref %ref_2, @_pipeline_layout_0 : !vm.ref<!hal.pipeline_layout>
    vm.cond_br %3, ^bb1, ^bb2
  ^bb1:  // pred: ^bb0
    %_pipeline_layout_0 = vm.global.load.ref @_pipeline_layout_0 : !vm.ref<!hal.pipeline_layout>
    %matmul_static_dispatch_0_cuda_nvptx_fb = vm.const.ref.rodata @matmul_static_dispatch_0_cuda_nvptx_fb : !vm.buffer
    %ref_3 = vm.call.variadic @hal.executable.create(%ref, %_utf8_cuda_nvptx_fb_B15B42B96FDBACC, %matmul_static_dispatch_0_cuda_nvptx_fb, %null_0, [%_pipeline_layout_0]) {nosideeffects} : (!vm.ref<!hal.device>, !vm.buffer, !vm.buffer, !vm.buffer, !vm.ref<!hal.pipeline_layout> ...) -> !vm.ref<!hal.executable>
    vm.br ^bb3(%ref_3 : !vm.ref<!hal.executable>)
  ^bb2:  // pred: ^bb0
    vm.br ^bb3(%null : !vm.ref<!hal.executable>)
  ^bb3(%4: !vm.ref<!hal.executable>):  // 2 preds: ^bb1, ^bb2
    vm.global.store.ref %4, @_executable_matmul_static_dispatch_0 : !vm.ref<!hal.executable>
    vm.return
  }
}

// -----// IR Dump After DropCompilerHints (iree-util-drop-compiler-hints) //----- //
vm.module public @module {
  vm.global.i32 private mutable @_device_query_0 : i32
  vm.global.ref private mutable @_pipeline_layout_0 : !vm.ref<!hal.pipeline_layout>
  vm.global.ref private mutable @_executable_matmul_static_dispatch_0 : !vm.ref<!hal.executable>
  vm.rodata private @matmul_static_dispatch_0_cuda_nvptx_fb {alignment = 16 : i64, mime_type = "application/x-flatbuffers"} dense<"…"> : vector<1944xi8>
  vm.rodata private @_utf8_hal_executable_format_EAB228F999C2D3A1 {alignment = 1 : i64} "hal.executable.format"
  vm.rodata private @_utf8_cuda_nvptx_fb_B15B42B96FDBACC {alignment = 1 : i64} "cuda-nvptx-fb"
  vm.import @hal.ex.shared_device() -> !vm.ref<!hal.device> attributes {nosideeffects, sym_visibility = "private"}
  vm.import @hal.buffer.assert(%buffer : !vm.ref<!hal.buffer>, %message : !vm.buffer, %allocator : !vm.ref<!hal.allocator>, %minimum_length : i64, %memory_types : i32, %buffer_usage : i32) attributes {sym_visibility = "private"}
  vm.import @hal.buffer_view.create(%buffer : !vm.ref<!hal.buffer>, %source_offset : i64, %source_length : i64, %element_type : i32, %encoding_type : i32, %shape : i64 ...) -> !vm.ref<!hal.buffer_view> attributes {nosideeffects, sym_visibility = "private"}
  vm.import @hal.buffer_view.assert(%buffer_view : !vm.ref<!hal.buffer_view>, %message : !vm.buffer, %element_type : i32, %encoding_type : i32, %shape : i64 ...) attributes {sym_visibility = "private"}
  vm.import @hal.buffer_view.buffer(%buffer_view : !vm.ref<!hal.buffer_view>) -> !vm.ref<!hal.buffer> attributes {nosideeffects, sym_visibility = "private"}
  vm.import @hal.command_buffer.create(%device : !vm.ref<!hal.device>, %modes : i32, %command_categories : i32, %binding_capacity : i32) -> !vm.ref<!hal.command_buffer> attributes {sym_visibility = "private"}
  vm.import @hal.command_buffer.finalize(%command_buffer : !vm.ref<!hal.command_buffer>) attributes {sym_visibility = "private"}
  vm.import @hal.command_buffer.execution_barrier(%command_buffer : !vm.ref<!hal.command_buffer>, %source_stage_mask : i32, %target_stage_mask : i32, %flags : i32) attributes {sym_visibility = "private"}
  vm.import @hal.command_buffer.push_descriptor_set(%command_buffer : !vm.ref<!hal.command_buffer>, %pipeline_layout : !vm.ref<!hal.pipeline_layout>, %set : i32, %bindings : tuple<i32, i32, !vm.ref<!hal.buffer>, i64, i64> ...) attributes {sym_visibility = "private"}
  vm.import @hal.command_buffer.dispatch(%command_buffer : !vm.ref<!hal.command_buffer>, %executable : !vm.ref<!hal.executable>, %entry_point : i32, %workgroup_x : i32, %workgroup_y : i32, %workgroup_z : i32) attributes {sym_visibility = "private"}
  vm.import @hal.descriptor_set_layout.create(%device : !vm.ref<!hal.device>, %flags : i32, %bindings : tuple<i32, i32, i32> ...) -> !vm.ref<!hal.descriptor_set_layout> attributes {nosideeffects, sym_visibility = "private"}
  vm.import @hal.device.allocator(%device : !vm.ref<!hal.device>) -> !vm.ref<!hal.allocator> attributes {nosideeffects, sym_visibility = "private"}
  vm.import @hal.device.query.i64(%device : !vm.ref<!hal.device>, %category : !vm.buffer, %key : !vm.buffer) -> (i32, i64) attributes {nosideeffects, sym_visibility = "private"}
  vm.import @hal.device.queue.execute(%device : !vm.ref<!hal.device>, %queue_affinity : i64, %wait_fence : !vm.ref<!hal.fence>, %signal_fence : !vm.ref<!hal.fence>, %command_buffers : !vm.ref<!hal.command_buffer> ...) attributes {sym_visibility = "private"}
  vm.import @hal.executable.create(%device : !vm.ref<!hal.device>, %executable_format : !vm.buffer, %executable_data : !vm.buffer, %constants : !vm.buffer, %pipeline_layouts : !vm.ref<!hal.pipeline_layout> ...) -> !vm.ref<!hal.executable> attributes {nosideeffects, sym_visibility = "private"}
  vm.import @hal.fence.create(%device : !vm.ref<!hal.device>, %flags : i32) -> !vm.ref<!hal.fence> attributes {sym_visibility = "private"}
  vm.import @hal.fence.await(%timeout_millis : i32, %fences : !vm.ref<!hal.fence> ...) -> i32 attributes {sym_visibility = "private", vm.yield}
  vm.import @hal.pipeline_layout.create(%device : !vm.ref<!hal.device>, %push_constants : i32, %set_layouts : !vm.ref<!hal.descriptor_set_layout> ...) -> !vm.ref<!hal.pipeline_layout> attributes {nosideeffects, sym_visibility = "private"}
  vm.rodata private @_utf8_tensor_3C6209B4FD120BDC {alignment = 1 : i64} "tensor"
  vm.func private @matmul_static(%arg0: !vm.ref<!hal.buffer_view>, %arg1: !vm.ref<!hal.buffer_view>, %arg2: !vm.ref<!hal.buffer_view>) -> !vm.ref<!hal.buffer_view> {
    %c2 = vm.const.i32 2
    %null = vm.const.ref.zero : !vm.ref<!hal.fence>
    %c13 = vm.const.i32 13
    %c28 = vm.const.i32 28
    %zero = vm.const.i32.zero
    %c3 = vm.const.i32 3
    %c17 = vm.const.i32 17
    %c3075 = vm.const.i32 3075
    %c16 = vm.const.i32 16
    %c5 = vm.const.i64 5
    %c1 = vm.const.i32 1
    %c553648160 = vm.const.i32 553648160
    %c1_0 = vm.const.i64 1
    %c3_1 = vm.const.i64 3
    %c36 = vm.const.i64 36
    %c60 = vm.const.i64 60
    %zero_2 = vm.const.i64.zero
    %c-1 = vm.const.i64 -1
    %c2_3 = vm.const.i64 2
    %c-1_4 = vm.const.i32 -1
    %_device_query_0 = vm.global.load.i32 @_device_query_0 : i32
    %_pipeline_layout_0 = vm.global.load.ref @_pipeline_layout_0 : !vm.ref<!hal.pipeline_layout>
    %_executable_matmul_static_dispatch_0 = vm.global.load.ref @_executable_matmul_static_dispatch_0 : !vm.ref<!hal.executable>
    %_utf8_tensor_3C6209B4FD120BDC = vm.const.ref.rodata @_utf8_tensor_3C6209B4FD120BDC : !vm.buffer
    vm.call.variadic @hal.buffer_view.assert(%arg0, %_utf8_tensor_3C6209B4FD120BDC, %c553648160, %c1, [%c3_1, %c5]) : (!vm.ref<!hal.buffer_view>, !vm.buffer, i32, i32, i64 ...)
    %ref = vm.call @hal.buffer_view.buffer(%arg0) {nosideeffects} : (!vm.ref<!hal.buffer_view>) -> !vm.ref<!hal.buffer>
    %ref_5 = vm.call @hal.ex.shared_device() {nosideeffects} : () -> !vm.ref<!hal.device>
    %ref_6 = vm.call @hal.device.allocator(%ref_5) {nosideeffects} : (!vm.ref<!hal.device>) -> !vm.ref<!hal.allocator>
    vm.call @hal.buffer.assert(%ref, %_utf8_tensor_3C6209B4FD120BDC, %ref_6, %c60, %c16, %c3075) : (!vm.ref<!hal.buffer>, !vm.buffer, !vm.ref<!hal.allocator>, i64, i32, i32) -> ()
    vm.call.variadic @hal.buffer_view.assert(%arg1, %_utf8_tensor_3C6209B4FD120BDC, %c553648160, %c1, [%c5, %c3_1]) : (!vm.ref<!hal.buffer_view>, !vm.buffer, i32, i32, i64 ...)
    %ref_7 = vm.call @hal.buffer_view.buffer(%arg1) {nosideeffects} : (!vm.ref<!hal.buffer_view>) -> !vm.ref<!hal.buffer>
    vm.call @hal.buffer.assert(%ref_7, %_utf8_tensor_3C6209B4FD120BDC, %ref_6, %c60, %c16, %c3075) : (!vm.ref<!hal.buffer>, !vm.buffer, !vm.ref<!hal.allocator>, i64, i32, i32) -> ()
    vm.call.variadic @hal.buffer_view.assert(%arg2, %_utf8_tensor_3C6209B4FD120BDC, %c553648160, %c1, [%c3_1, %c3_1]) : (!vm.ref<!hal.buffer_view>, !vm.buffer, i32, i32, i64 ...)
    %ref_8 = vm.call @hal.buffer_view.buffer(%arg2) {nosideeffects} : (!vm.ref<!hal.buffer_view>) -> !vm.ref<!hal.buffer>
    vm.call @hal.buffer.assert(%ref_8, %_utf8_tensor_3C6209B4FD120BDC, %ref_6, %c36, %c16, %c3075) : (!vm.ref<!hal.buffer>, !vm.buffer, !vm.ref<!hal.allocator>, i64, i32, i32) -> ()
    %ref_9 = vm.call @hal.command_buffer.create(%ref_5, %c17, %c3, %zero) : (!vm.ref<!hal.device>, i32, i32, i32) -> !vm.ref<!hal.command_buffer>
    vm.cond_br %_device_query_0, ^bb1, ^bb4
  ^bb1:  // pred: ^bb0
    vm.call.variadic @hal.command_buffer.push_descriptor_set(%ref_9, %_pipeline_layout_0, %zero_2, [(%zero_2, %zero, %ref, %zero_2, %c60), (%c1_0, %zero, %ref_7, %zero_2, %c60), (%c2_3, %zero, %ref_8, %zero_2, %c36)]) : (!vm.ref<!hal.command_buffer>, !vm.ref<!hal.pipeline_layout>, i32, tuple<i32, i32, !vm.ref<!hal.buffer>, i64, i64> ...)
    vm.call @hal.command_buffer.dispatch(%ref_9, %_executable_matmul_static_dispatch_0, %zero, %c1, %c1, %c1) : (!vm.ref<!hal.command_buffer>, !vm.ref<!hal.executable>, i32, i32, i32, i32) -> ()
    vm.call @hal.command_buffer.execution_barrier(%ref_9, %c28, %c13, %zero) : (!vm.ref<!hal.command_buffer>, i32, i32, i32) -> ()
    vm.call @hal.command_buffer.finalize(%ref_9) : (!vm.ref<!hal.command_buffer>) -> ()
    %ref_10 = vm.call @hal.fence.create(%ref_5, %zero) : (!vm.ref<!hal.device>, i32) -> !vm.ref<!hal.fence>
    vm.call.variadic @hal.device.queue.execute(%ref_5, %c-1, %null, %ref_10, [%ref_9]) : (!vm.ref<!hal.device>, i64, !vm.ref<!hal.fence>, !vm.ref<!hal.fence>, !vm.ref<!hal.command_buffer> ...)
    %0 = vm.call.variadic @hal.fence.await(%c-1_4, [%ref_10]) : (i32, !vm.ref<!hal.fence> ...) -> i32
    vm.cond_br %0, ^bb3, ^bb2
  ^bb2:  // pred: ^bb1
    %ref_11 = vm.call.variadic @hal.buffer_view.create(%ref_8, %zero_2, %c36, %c553648160, %c1, [%c3_1, %c3_1]) {nosideeffects} : (!vm.ref<!hal.buffer>, i64, i64, i32, i32, i64 ...) -> !vm.ref<!hal.buffer_view>
    vm.return %ref_11 : !vm.ref<!hal.buffer_view>
  ^bb3:  // pred: ^bb1
    vm.fail %0, "failed to wait on timepoint"
  ^bb4:  // pred: ^bb0
    vm.fail %c2, "device not supported in the compiled configuration"
  }
  vm.export @matmul_static attributes {iree.abi.stub}
  vm.export @__init
  vm.func private @__init() {
    %null = vm.const.ref.zero : !vm.ref<!hal.executable>
    %null_0 = vm.const.ref.zero : !vm.buffer
    %c2 = vm.const.i32 2
    %c7 = vm.const.i32 7
    %zero = vm.const.i32.zero
    %c1 = vm.const.i32 1
    %ref = vm.call @hal.ex.shared_device() {nosideeffects} : () -> !vm.ref<!hal.device>
    %_utf8_hal_executable_format_EAB228F999C2D3A1 = vm.const.ref.rodata @_utf8_hal_executable_format_EAB228F999C2D3A1 : !vm.buffer
    %_utf8_cuda_nvptx_fb_B15B42B96FDBACC = vm.const.ref.rodata @_utf8_cuda_nvptx_fb_B15B42B96FDBACC : !vm.buffer
    %0:2 = vm.call @hal.device.query.i64(%ref, %_utf8_hal_executable_format_EAB228F999C2D3A1, %_utf8_cuda_nvptx_fb_B15B42B96FDBACC) {nosideeffects} : (!vm.ref<!hal.device>, !vm.buffer, !vm.buffer) -> (i32, i64)
    %1 = vm.trunc.i64.i32 %0#1 : i64 -> i32
    %2 = vm.and.i32 %1, %c1 : i32
    %3 = vm.select.i32 %0#0, %2, %zero : i32
    %ref_1 = vm.call.variadic @hal.descriptor_set_layout.create(%ref, %zero, [(%zero, %c7, %c1), (%c1, %c7, %c1), (%c2, %c7, %zero)]) {nosideeffects} : (!vm.ref<!hal.device>, i32, tuple<i32, i32, i32> ...) -> !vm.ref<!hal.descriptor_set_layout>
    %ref_2 = vm.call.variadic @hal.pipeline_layout.create(%ref, %zero, [%ref_1]) {nosideeffects} : (!vm.ref<!hal.device>, i32, !vm.ref<!hal.descriptor_set_layout> ...) -> !vm.ref<!hal.pipeline_layout>
    vm.global.store.i32 %3, @_device_query_0 : i32
    vm.global.store.ref %ref_2, @_pipeline_layout_0 : !vm.ref<!hal.pipeline_layout>
    vm.cond_br %3, ^bb1, ^bb2
  ^bb1:  // pred: ^bb0
    %_pipeline_layout_0 = vm.global.load.ref @_pipeline_layout_0 : !vm.ref<!hal.pipeline_layout>
    %matmul_static_dispatch_0_cuda_nvptx_fb = vm.const.ref.rodata @matmul_static_dispatch_0_cuda_nvptx_fb : !vm.buffer
    %ref_3 = vm.call.variadic @hal.executable.create(%ref, %_utf8_cuda_nvptx_fb_B15B42B96FDBACC, %matmul_static_dispatch_0_cuda_nvptx_fb, %null_0, [%_pipeline_layout_0]) {nosideeffects} : (!vm.ref<!hal.device>, !vm.buffer, !vm.buffer, !vm.buffer, !vm.ref<!hal.pipeline_layout> ...) -> !vm.ref<!hal.executable>
    vm.br ^bb3(%ref_3 : !vm.ref<!hal.executable>)
  ^bb2:  // pred: ^bb0
    vm.br ^bb3(%null : !vm.ref<!hal.executable>)
  ^bb3(%4: !vm.ref<!hal.executable>):  // 2 preds: ^bb1, ^bb2
    vm.global.store.ref %4, @_executable_matmul_static_dispatch_0 : !vm.ref<!hal.executable>
    vm.return
  }
}

// -----// IR Dump After mlir::iree_compiler::IREE::VM::OrdinalAllocationPass (iree-vm-ordinal-allocation) //----- //
vm.module public @module attributes {ordinal_counts = #vm.ordinal_counts<import_funcs = 18, export_funcs = 2, internal_funcs = 2, global_bytes = 4, global_refs = 2, rodatas = 4, rwdatas = 0>} {
  vm.global.i32 private mutable @_device_query_0 {ordinal = 0 : i32} : i32
  vm.global.ref private mutable @_pipeline_layout_0 {ordinal = 0 : i32} : !vm.ref<!hal.pipeline_layout>
  vm.global.ref private mutable @_executable_matmul_static_dispatch_0 {ordinal = 1 : i32} : !vm.ref<!hal.executable>
  vm.rodata private @matmul_static_dispatch_0_cuda_nvptx_fb {alignment = 16 : i64, mime_type = "application/x-flatbuffers", ordinal = 0 : i32} dense<"…"> : vector<1944xi8>
  vm.rodata private @_utf8_hal_executable_format_EAB228F999C2D3A1 {alignment = 1 : i64, ordinal = 1 : i32} "hal.executable.format"
  vm.rodata private @_utf8_cuda_nvptx_fb_B15B42B96FDBACC {alignment = 1 : i64, ordinal = 2 : i32} "cuda-nvptx-fb"
  vm.import @hal.ex.shared_device() -> !vm.ref<!hal.device> attributes {nosideeffects, ordinal = 0 : i32, sym_visibility = "private"}
  vm.import @hal.buffer.assert(%buffer : !vm.ref<!hal.buffer>, %message : !vm.buffer, %allocator : !vm.ref<!hal.allocator>, %minimum_length : i64, %memory_types : i32, %buffer_usage : i32) attributes {ordinal = 1 : i32, sym_visibility = "private"}
  vm.import @hal.buffer_view.create(%buffer : !vm.ref<!hal.buffer>, %source_offset : i64, %source_length : i64, %element_type : i32, %encoding_type : i32, %shape : i64 ...) -> !vm.ref<!hal.buffer_view> attributes {nosideeffects, ordinal = 2 : i32, sym_visibility = "private"}
  vm.import @hal.buffer_view.assert(%buffer_view : !vm.ref<!hal.buffer_view>, %message : !vm.buffer, %element_type : i32, %encoding_type : i32, %shape : i64 ...) attributes {ordinal = 3 : i32, sym_visibility = "private"}
  vm.import @hal.buffer_view.buffer(%buffer_view : !vm.ref<!hal.buffer_view>) -> !vm.ref<!hal.buffer> attributes {nosideeffects, ordinal = 4 : i32, sym_visibility = "private"}
  vm.import @hal.command_buffer.create(%device : !vm.ref<!hal.device>, %modes : i32, %command_categories : i32, %binding_capacity : i32) -> !vm.ref<!hal.command_buffer> attributes {ordinal = 5 : i32, sym_visibility = "private"}
  vm.import @hal.command_buffer.finalize(%command_buffer : !vm.ref<!hal.command_buffer>) attributes {ordinal = 6 : i32, sym_visibility = "private"}
  vm.import @hal.command_buffer.execution_barrier(%command_buffer : !vm.ref<!hal.command_buffer>, %source_stage_mask : i32, %target_stage_mask : i32, %flags : i32) attributes {ordinal = 7 : i32, sym_visibility = "private"}
  vm.import @hal.command_buffer.push_descriptor_set(%command_buffer : !vm.ref<!hal.command_buffer>, %pipeline_layout : !vm.ref<!hal.pipeline_layout>, %set : i32, %bindings : tuple<i32, i32, !vm.ref<!hal.buffer>, i64, i64> ...) attributes {ordinal = 8 : i32, sym_visibility = "private"}
  vm.import @hal.command_buffer.dispatch(%command_buffer : !vm.ref<!hal.command_buffer>, %executable : !vm.ref<!hal.executable>, %entry_point : i32, %workgroup_x : i32, %workgroup_y : i32, %workgroup_z : i32) attributes {ordinal = 9 : i32, sym_visibility = "private"}
  vm.import @hal.descriptor_set_layout.create(%device : !vm.ref<!hal.device>, %flags : i32, %bindings : tuple<i32, i32, i32> ...) -> !vm.ref<!hal.descriptor_set_layout> attributes {nosideeffects, ordinal = 10 : i32, sym_visibility = "private"}
  vm.import @hal.device.allocator(%device : !vm.ref<!hal.device>) -> !vm.ref<!hal.allocator> attributes {nosideeffects, ordinal = 11 : i32, sym_visibility = "private"}
  vm.import @hal.device.query.i64(%device : !vm.ref<!hal.device>, %category : !vm.buffer, %key : !vm.buffer) -> (i32, i64) attributes {nosideeffects, ordinal = 12 : i32, sym_visibility = "private"}
  vm.import @hal.device.queue.execute(%device : !vm.ref<!hal.device>, %queue_affinity : i64, %wait_fence : !vm.ref<!hal.fence>, %signal_fence : !vm.ref<!hal.fence>, %command_buffers : !vm.ref<!hal.command_buffer> ...) attributes {ordinal = 13 : i32, sym_visibility = "private"}
  vm.import @hal.executable.create(%device : !vm.ref<!hal.device>, %executable_format : !vm.buffer, %executable_data : !vm.buffer, %constants : !vm.buffer, %pipeline_layouts : !vm.ref<!hal.pipeline_layout> ...) -> !vm.ref<!hal.executable> attributes {nosideeffects, ordinal = 14 : i32, sym_visibility = "private"}
  vm.import @hal.fence.create(%device : !vm.ref<!hal.device>, %flags : i32) -> !vm.ref<!hal.fence> attributes {ordinal = 15 : i32, sym_visibility = "private"}
  vm.import @hal.fence.await(%timeout_millis : i32, %fences : !vm.ref<!hal.fence> ...) -> i32 attributes {ordinal = 16 : i32, sym_visibility = "private", vm.yield}
  vm.import @hal.pipeline_layout.create(%device : !vm.ref<!hal.device>, %push_constants : i32, %set_layouts : !vm.ref<!hal.descriptor_set_layout> ...) -> !vm.ref<!hal.pipeline_layout> attributes {nosideeffects, ordinal = 17 : i32, sym_visibility = "private"}
  vm.rodata private @_utf8_tensor_3C6209B4FD120BDC {alignment = 1 : i64, ordinal = 3 : i32} "tensor"
  vm.func private @matmul_static(%arg0: !vm.ref<!hal.buffer_view>, %arg1: !vm.ref<!hal.buffer_view>, %arg2: !vm.ref<!hal.buffer_view>) -> !vm.ref<!hal.buffer_view> attributes {ordinal = 0 : i32} {
    %c2 = vm.const.i32 2
    %null = vm.const.ref.zero : !vm.ref<!hal.fence>
    %c13 = vm.const.i32 13
    %c28 = vm.const.i32 28
    %zero = vm.const.i32.zero
    %c3 = vm.const.i32 3
    %c17 = vm.const.i32 17
    %c3075 = vm.const.i32 3075
    %c16 = vm.const.i32 16
    %c5 = vm.const.i64 5
    %c1 = vm.const.i32 1
    %c553648160 = vm.const.i32 553648160
    %c1_0 = vm.const.i64 1
    %c3_1 = vm.const.i64 3
    %c36 = vm.const.i64 36
    %c60 = vm.const.i64 60
    %zero_2 = vm.const.i64.zero
    %c-1 = vm.const.i64 -1
    %c2_3 = vm.const.i64 2
    %c-1_4 = vm.const.i32 -1
    %_device_query_0 = vm.global.load.i32 @_device_query_0 : i32
    %_pipeline_layout_0 = vm.global.load.ref @_pipeline_layout_0 : !vm.ref<!hal.pipeline_layout>
    %_executable_matmul_static_dispatch_0 = vm.global.load.ref @_executable_matmul_static_dispatch_0 : !vm.ref<!hal.executable>
    %_utf8_tensor_3C6209B4FD120BDC = vm.const.ref.rodata @_utf8_tensor_3C6209B4FD120BDC : !vm.buffer
    vm.call.variadic @hal.buffer_view.assert(%arg0, %_utf8_tensor_3C6209B4FD120BDC, %c553648160, %c1, [%c3_1, %c5]) : (!vm.ref<!hal.buffer_view>, !vm.buffer, i32, i32, i64 ...)
    %ref = vm.call @hal.buffer_view.buffer(%arg0) {nosideeffects} : (!vm.ref<!hal.buffer_view>) -> !vm.ref<!hal.buffer>
    %ref_5 = vm.call @hal.ex.shared_device() {nosideeffects} : () -> !vm.ref<!hal.device>
    %ref_6 = vm.call @hal.device.allocator(%ref_5) {nosideeffects} : (!vm.ref<!hal.device>) -> !vm.ref<!hal.allocator>
    vm.call @hal.buffer.assert(%ref, %_utf8_tensor_3C6209B4FD120BDC, %ref_6, %c60, %c16, %c3075) : (!vm.ref<!hal.buffer>, !vm.buffer, !vm.ref<!hal.allocator>, i64, i32, i32) -> ()
    vm.call.variadic @hal.buffer_view.assert(%arg1, %_utf8_tensor_3C6209B4FD120BDC, %c553648160, %c1, [%c5, %c3_1]) : (!vm.ref<!hal.buffer_view>, !vm.buffer, i32, i32, i64 ...)
    %ref_7 = vm.call @hal.buffer_view.buffer(%arg1) {nosideeffects} : (!vm.ref<!hal.buffer_view>) -> !vm.ref<!hal.buffer>
    vm.call @hal.buffer.assert(%ref_7, %_utf8_tensor_3C6209B4FD120BDC, %ref_6, %c60, %c16, %c3075) : (!vm.ref<!hal.buffer>, !vm.buffer, !vm.ref<!hal.allocator>, i64, i32, i32) -> ()
    vm.call.variadic @hal.buffer_view.assert(%arg2, %_utf8_tensor_3C6209B4FD120BDC, %c553648160, %c1, [%c3_1, %c3_1]) : (!vm.ref<!hal.buffer_view>, !vm.buffer, i32, i32, i64 ...)
    %ref_8 = vm.call @hal.buffer_view.buffer(%arg2) {nosideeffects} : (!vm.ref<!hal.buffer_view>) -> !vm.ref<!hal.buffer>
    vm.call @hal.buffer.assert(%ref_8, %_utf8_tensor_3C6209B4FD120BDC, %ref_6, %c36, %c16, %c3075) : (!vm.ref<!hal.buffer>, !vm.buffer, !vm.ref<!hal.allocator>, i64, i32, i32) -> ()
    %ref_9 = vm.call @hal.command_buffer.create(%ref_5, %c17, %c3, %zero) : (!vm.ref<!hal.device>, i32, i32, i32) -> !vm.ref<!hal.command_buffer>
    vm.cond_br %_device_query_0, ^bb1, ^bb4
  ^bb1:  // pred: ^bb0
    vm.call.variadic @hal.command_buffer.push_descriptor_set(%ref_9, %_pipeline_layout_0, %zero_2, [(%zero_2, %zero, %ref, %zero_2, %c60), (%c1_0, %zero, %ref_7, %zero_2, %c60), (%c2_3, %zero, %ref_8, %zero_2, %c36)]) : (!vm.ref<!hal.command_buffer>, !vm.ref<!hal.pipeline_layout>, i32, tuple<i32, i32, !vm.ref<!hal.buffer>, i64, i64> ...)
    vm.call @hal.command_buffer.dispatch(%ref_9, %_executable_matmul_static_dispatch_0, %zero, %c1, %c1, %c1) : (!vm.ref<!hal.command_buffer>, !vm.ref<!hal.executable>, i32, i32, i32, i32) -> ()
    vm.call @hal.command_buffer.execution_barrier(%ref_9, %c28, %c13, %zero) : (!vm.ref<!hal.command_buffer>, i32, i32, i32) -> ()
    vm.call @hal.command_buffer.finalize(%ref_9) : (!vm.ref<!hal.command_buffer>) -> ()
    %ref_10 = vm.call @hal.fence.create(%ref_5, %zero) : (!vm.ref<!hal.device>, i32) -> !vm.ref<!hal.fence>
    vm.call.variadic @hal.device.queue.execute(%ref_5, %c-1, %null, %ref_10, [%ref_9]) : (!vm.ref<!hal.device>, i64, !vm.ref<!hal.fence>, !vm.ref<!hal.fence>, !vm.ref<!hal.command_buffer> ...)
    %0 = vm.call.variadic @hal.fence.await(%c-1_4, [%ref_10]) : (i32, !vm.ref<!hal.fence> ...) -> i32
    vm.cond_br %0, ^bb3, ^bb2
  ^bb2:  // pred: ^bb1
    %ref_11 = vm.call.variadic @hal.buffer_view.create(%ref_8, %zero_2, %c36, %c553648160, %c1, [%c3_1, %c3_1]) {nosideeffects} : (!vm.ref<!hal.buffer>, i64, i64, i32, i32, i64 ...) -> !vm.ref<!hal.buffer_view>
    vm.return %ref_11 : !vm.ref<!hal.buffer_view>
  ^bb3:  // pred: ^bb1
    vm.fail %0, "failed to wait on timepoint"
  ^bb4:  // pred: ^bb0
    vm.fail %c2, "device not supported in the compiled configuration"
  }
  vm.export @matmul_static attributes {iree.abi.stub, ordinal = 0 : i32}
  vm.export @__init attributes {ordinal = 1 : i32}
  vm.func private @__init() attributes {ordinal = 1 : i32} {
    %null = vm.const.ref.zero : !vm.ref<!hal.executable>
    %null_0 = vm.const.ref.zero : !vm.buffer
    %c2 = vm.const.i32 2
    %c7 = vm.const.i32 7
    %zero = vm.const.i32.zero
    %c1 = vm.const.i32 1
    %ref = vm.call @hal.ex.shared_device() {nosideeffects} : () -> !vm.ref<!hal.device>
    %_utf8_hal_executable_format_EAB228F999C2D3A1 = vm.const.ref.rodata @_utf8_hal_executable_format_EAB228F999C2D3A1 : !vm.buffer
    %_utf8_cuda_nvptx_fb_B15B42B96FDBACC = vm.const.ref.rodata @_utf8_cuda_nvptx_fb_B15B42B96FDBACC : !vm.buffer
    %0:2 = vm.call @hal.device.query.i64(%ref, %_utf8_hal_executable_format_EAB228F999C2D3A1, %_utf8_cuda_nvptx_fb_B15B42B96FDBACC) {nosideeffects} : (!vm.ref<!hal.device>, !vm.buffer, !vm.buffer) -> (i32, i64)
    %1 = vm.trunc.i64.i32 %0#1 : i64 -> i32
    %2 = vm.and.i32 %1, %c1 : i32
    %3 = vm.select.i32 %0#0, %2, %zero : i32
    %ref_1 = vm.call.variadic @hal.descriptor_set_layout.create(%ref, %zero, [(%zero, %c7, %c1), (%c1, %c7, %c1), (%c2, %c7, %zero)]) {nosideeffects} : (!vm.ref<!hal.device>, i32, tuple<i32, i32, i32> ...) -> !vm.ref<!hal.descriptor_set_layout>
    %ref_2 = vm.call.variadic @hal.pipeline_layout.create(%ref, %zero, [%ref_1]) {nosideeffects} : (!vm.ref<!hal.device>, i32, !vm.ref<!hal.descriptor_set_layout> ...) -> !vm.ref<!hal.pipeline_layout>
    vm.global.store.i32 %3, @_device_query_0 : i32
    vm.global.store.ref %ref_2, @_pipeline_layout_0 : !vm.ref<!hal.pipeline_layout>
    vm.cond_br %3, ^bb1, ^bb2
  ^bb1:  // pred: ^bb0
    %_pipeline_layout_0 = vm.global.load.ref @_pipeline_layout_0 : !vm.ref<!hal.pipeline_layout>
    %matmul_static_dispatch_0_cuda_nvptx_fb = vm.const.ref.rodata @matmul_static_dispatch_0_cuda_nvptx_fb : !vm.buffer
    %ref_3 = vm.call.variadic @hal.executable.create(%ref, %_utf8_cuda_nvptx_fb_B15B42B96FDBACC, %matmul_static_dispatch_0_cuda_nvptx_fb, %null_0, [%_pipeline_layout_0]) {nosideeffects} : (!vm.ref<!hal.device>, !vm.buffer, !vm.buffer, !vm.buffer, !vm.ref<!hal.pipeline_layout> ...) -> !vm.ref<!hal.executable>
    vm.br ^bb3(%ref_3 : !vm.ref<!hal.executable>)
  ^bb2:  // pred: ^bb0
    vm.br ^bb3(%null : !vm.ref<!hal.executable>)
  ^bb3(%4: !vm.ref<!hal.executable>):  // 2 preds: ^bb1, ^bb2
    vm.global.store.ref %4, @_executable_matmul_static_dispatch_0 : !vm.ref<!hal.executable>
    vm.return
  }
}

